model/360x640_1080x1920.onnx (onnx, 172408 bytes, 14 tensors)

onnx::Conv_80 f4 [28, 3, 3, 3]
000000 b3 21 de ba 77 aa f9 ba 6e e7 e1 ba 73 6b aa 39
       -0.0016947299 -0.0019047995 -0.0017235109 0.00032504983
000010 de cb af ba 6b 8c a6 ba 7f 9c 56 39 cb c1 d6 ba
       -0.0013412198 -0.0012706643 0.0002046693 -0.0016384659
000020 39 8e b2 b9 92 aa 8a b8 99 4b 98 39 c1 a4 0f 3a
       -0.0003405677 -6.612124e-05 0.00029048024 0.00054795673
000030 e0 06 26 3a 45 d7 a8 3a 7e 5a 0c 3a ac 37 d6 39
       0.0006333422 0.0012881538 0.00053540606 0.0004085874
000040 c9 5e ff 39 2a d6 0d 3a 0e b6 f9 39 cd 22 8f 3a
       0.0004870801 0.0005410636 0.00047628622 0.0010920406
000050 ff 89 ae b9 cb 92 e0 3a 78 db 81 3a e6 92 36 39
       -0.0003329068 0.0017133591 0.0009907326 0.00017411596
000060 f3 8a 47 3a 14 a2 4d b9 46 4d 1f 3a 37 1f ef ba
       0.00076119526 -0.00019610702 0.00060768833 -0.0018243556
000070 1b 40 45 ba a9 4f a4 3a b7 b6 f4 ba cc 26 c3 ba
       -0.0007524506 0.0012535948 -0.0018670176 -0.0014888882
000080 71 4d dd 3a ed 7c 73 b8 9d fc 77 38 0e e5 06 3b
       0.0016884041 -5.805206e-05 5.9124653e-05 0.0020583305
000090 2a a7 88 ba e0 09 a8 ba 50 db 10 ba c0 e2 d8 ba
       -0.0010425795 -0.0012820326 -0.0005525844 -0.0016547069
0000a0 41 75 c0 ba fc 69 81 ba e3 9d 6f 3a cd c7 95 ba
       -0.0014683382 -0.0009873505 0.00091406534 -0.0011427343
0000b0 b1 cb f3 3a ac 21 18 ba 8b 6e cd 3a 01 c9 e0 b8
       0.0018600133 -0.00058033573 0.0015673203 -0.00010718592
0000c0 cb 7c 35 3a fa 5f 1f 3b 9a 02 2b 3b 26 3a c7 b9
       0.00069231977 0.002431868 0.002609408 -0.00037999562
0000d0 1a cf 78 ba 9c be 12 3b 30 4c 15 ba 83 7b 3d 39
       -0.000949131 0.0022391444 -0.0005695252 0.00018070456
0000e0 90 01 a1 3a 65 40 26 bb cf b5 44 3a 8c ea 8d ba
       0.0012283791 -0.0025367972 0.0007503898 -0.0010827347
0000f0 31 b6 ec 3a c7 0e 8e 3a 33 b4 63 38 26 7f f1 ba
       0.0018059668 0.0010838144 5.428884e-05 -0.0018424734
000100 49 9e 19 bb 19 2d b9 39 36 8b 85 bb 63 d8 70 b9
       -0.0023440293 0.0003531955 -0.004075433 -0.00022968794
000110 72 46 36 bb 9c f4 33 3a 00 b4 fd 39 22 ee 79 ba
       -0.0027812985 0.0006864758 0.0004839003 -0.0009534081
000120 a4 95 22 ba 42 5a 8d 3a dd 76 89 3a 97 62 d2 ba
       -0.0006202108 0.0010784345 0.0010487695 -0.001605111
000130 96 8c 0e 3b 2b ee 5b ba df 49 f8 3a c0 0b fc 3a
       0.0021751276 -0.0008389677 0.0018942914 0.0019229576
000140 79 a2 65 3a 09 34 a3 3a 3b b8 ed ba b8 82 6e 3a
       0.0008759867 0.0012451421 -0.001813657 0.0009098458
000150 a4 81 3b 39 ad 97 19 bb ff 04 b5 b9 6d 89 36 ba
       0.00017882005 -0.0023436353 -0.00034526733 -0.0006963227
000160 e2 98 71 39 b6 ea ea ba 87 13 b0 ba bc 6b 17 bb
       0.00023040504 -0.0017922733 -0.0013433554 -0.0023104986
000170 c5 91 03 bb ce 3e c2 ba 9f 62 2c bb 82 7f 69 ba
       -0.00200759 -0.0014819743 -0.00263039 -0.0008907245
000180 24 f2 46 ba 5b 4d 0e 3a 8b a0 21 bb 6a 64 30 3b
       -0.00075891824 0.0005428397 -0.0024662341 0.002691532
000190 db a3 21 3b db 9d f4 3a 29 1b 4c 3b 32 1e 28 3b
       0.0024664316 0.0018662767 0.0031144118 0.0025652763
0001a0 13 30 0a 39 39 d6 15 3b 31 d9 12 3b 21 b4 71 3a
       0.00013178615 0.0022863282 0.0022407288 0.00092202617
0001b0 a3 a1 27 ba 08 55 bc b9 be dc d3 3a 82 ec aa 3a
       -0.000639463 -0.00035921508 0.0016163809 0.0013040456
0001c0 bf 9b 86 ba e9 95 81 3a 41 f1 02 ba 5e ed 9c 3a
       -0.0010269805 0.0009886596 -0.0004995056 0.0011972596
0001d0 fa 9c 1f 3a c9 70 32 3a 85 97 a9 3a 29 b6 9c b9
       0.000608876 0.00068069674 0.0012938833 -0.0002989036
0001e0 bb e8 a6 37 47 b2 3f ba c2 72 0d 3b 70 ec fb 39
       1.9897116e-05 -0.0007312637 0.0021583294 0.0004805061
0001f0 aa cd fe 3a c5 8e 36 3a 84 9c a5 b9 ae 4c b9 ba
       0.0019439955 0.00069640233 -0.00031587866 -0.0014137232
000200 c1 67 86 ba 28 1d d7 ba 26 30 b1 bb c6 83 e2 ba
       -0.001025431 -0.0016411887 -0.005407351 -0.0017281703
000210 23 f2 eb ba 00 40 2c bb fb 0d a5 ba c2 b6 8a bb
       -0.001800124 -0.0026283264 -0.0012592667 -0.004233212
000220 bc 90 ad 3a c3 8a c6 3a 0c a3 50 bb 2d 67 13 3c
       0.0013241987 0.0015147555 -0.0031835465 0.008996767
000230 ad a0 5a 3a e2 97 14 bb b1 e0 59 b9 5e fa 4b 3a
       0.00083399826 -0.0022673537 -0.00020778437 0.0007781143
000240 33 2b 53 3b 09 c1 7c ba 30 ad 26 bb 5a 58 3a 3a
       0.0032221794 -0.00096418016 -0.0025432818 0.00071085023
000250 9c 68 a1 3b cb 79 d7 3a 0c aa 36 3b 1b b3 84 bb
       0.0049258005 0.0016439495 0.0027872352 -0.0040496713
000260 65 3f 33 bb d9 c4 71 ba f3 f0 90 bb d0 37 c9 3a
       -0.0027351019 -0.0009222753 -0.0044232546 0.0015351716
000270 b7 88 d9 3a ca 1f 58 bc 5d cf 84 3a b7 f4 8f 39
       0.001659653 -0.013191173 0.00101326 0.00027457412
000280 3c 52 c3 3b 23 81 89 3a e1 3e dc 39 79 1c 04 3b
       0.005960731 0.0010490756 0.00042008518 0.0020158573
000290 19 f4 b9 3a 22 b8 b0 ba 57 76 d2 3a 37 1d fd 3a
       0.0014187127 -0.001348261 0.0016056997 0.0019311075
0002a0 1e a2 64 ba 4e 64 fa ba be 9f 1a bb 2e 6b 76 3a
       -0.0008721667 -0.001910338 -0.002359375 0.00094001263
0002b0 10 b1 15 3b 72 0e a1 3a d7 17 37 3a a0 c1 f6 3a
       0.0022841133 0.001228763 0.00069844484 0.0018826015
0002c0 3c 51 d4 3a 31 e1 c0 ba fc f8 d9 3a 29 fa 9e ba
       0.0016198526 -0.001471555 0.0016629989 -0.0012128997
0002d0 a5 cc b9 b9 f4 a2 9e b9 e7 f1 c4 ba c9 b2 d6 b9
       -0.00035438422 -0.00030257518 -0.0015025706 -0.00040950466
0002e0 50 65 91 39 4f 91 47 ba 24 75 19 bb 42 a4 d5 ba
       0.0002773204 -0.00076129 -0.0023415769 -0.0016299563
0002f0 91 1e f7 ba 52 b7 e1 39 26 e6 11 3b f8 a1 66 3a
       -0.0018853714 0.00043051929 0.0022262423 0.0008797939
000300 39 b2 0a 3b 67 27 d1 3a 1c 12 a8 39 15 01 bd 3a
       0.0021163358 0.0015957177 0.0003205695 0.0014419878
000310 cd a9 26 3a 47 e2 12 ba c3 49 e0 ba 7a 69 1d ba
       0.00063577 -0.0005603176 -0.0017111826 -0.0006004792
000320 9b 70 8c ba ab 54 b3 ba 0c 98 bb ba fe 9e 6b 3a
       -0.0010714711 -0.0013681849 -0.0014312281 0.000898823
000330 70 cd 0c bb d9 c0 f5 ba 1a 94 2e ba 06 5d 9d b9
       -0.0021484755 -0.001874949 -0.0006659642 -0.0003001468
000340 d8 a5 5f 3a a2 05 b9 37 98 79 51 38 7e 73 bf 36
       0.00085314875 2.2056342e-05 4.9942726e-05 5.7056886e-06
000350 db 68 9a b9 46 83 12 ba 92 5b 01 ba f0 d8 a7 3a
       -0.00029451292 -0.0005589019 -0.00049346045 0.0012805741
000360 70 2a f7 ba 15 90 92 3a e6 4d 38 38 89 04 00 3b
       -0.0018857252 0.0011181856 4.3941567e-05 0.0019533953
000370 bc 01 e0 38 ae 7c 52 ba 94 6e fb 39 d8 07 51 b9
       0.000106814754 -0.0008029443 0.00047956838 -0.00019934715
000380 79 1c 18 3a 02 ce a8 ba 7c 82 ef 3a eb 2a af ba
       0.00058025826 -0.0012878778 0.001827314 -0.0013364231
000390 06 cb 70 b9 29 6c 8a bb db 0f de ba c3 f1 58 ba
       -0.00022963816 -0.0042243195 -0.0016941981 -0.00082757714
0003a0 86 7f 64 ba f2 b7 4b 3a b0 10 ee 3a e5 15 1e ba
       -0.0008716512 0.00077712454 0.0018162932 -0.0006030484
0003b0 ea b6 56 b9 60 d5 90 3b 40 2c 34 3b 9d 64 ca 39
       -0.00020476771 0.0044199675 0.0027492195 0.00038603405
0003c0 93 1a a9 39 c4 05 7f 39 57 c5 21 bb 0b 47 4f 3b
       0.0003225399 0.00024320843 -0.0024684274 0.0031628038
0003d0 3e 88 51 3b 02 cf 12 3b 8f f9 22 3b 03 c0 50 ba
       0.0031972076 0.0022401218 0.0024867987 -0.0007963182
0003e0 7e 7a 01 bb 97 1c 23 3a a2 16 af 3a 92 98 e6 ba
       -0.001975685 0.0006222217 0.0013358186 -0.0017593077
0003f0 14 56 8d 3a b0 ff 03 3a 37 ba e7 39 97 0d 0d bb
       0.00107831 0.0005035354 0.00044198494 -0.0021522993

onnx::Conv_81 f4 [28]
000000 28 19 67 3e ce 08 09 3f 30 7b 42 3d 81 19 88 3f
       0.2256819 0.5352906 0.047480762 1.0632783
000010 74 40 5d 3e 31 70 e3 3f 6d 4b cc 3f 44 87 f2 3f
       0.21606618 1.7768613 1.5960518 1.894753
000020 c3 25 d3 3f cb 4a 7d 3f 88 e1 0c 40 34 6c c5 3e
       1.6495899 0.9894225 2.2012653 0.38559115
000030 12 a7 cc bc 37 10 13 40 1c 10 db 3e 5c 23 a6 3e
       -0.02498201 2.2978647 0.42785728 0.32448852
000040 f1 f3 1a be 0c 94 a1 3f 92 a6 1c 3d b0 97 ed 3f
       -0.15132119 1.2623305 0.03824479 1.8561916
000050 46 3a 82 3f 7a dc dc 3f 6a e5 b2 3f e8 f5 b0 3f
       1.0174034 1.7254784 1.3976262 1.3825045
000060 5e 71 08 40 53 70 2c 40 8f 41 32 40 08 2f 47 3f
       2.1319194 2.6943557 2.7852514 0.7780614

onnx::Conv_83 f4 [28, 28, 3, 3]
000000 2f e0 9f bc a7 69 ac bc ab 3f 20 bd 04 da 9d bc
       -0.019516079 -0.021046473 -0.03912322 -0.019268997
000010 73 97 e8 39 d9 6c 38 bc 9e d6 61 bd 5c 73 68 bc
       0.00044363327 -0.01125642 -0.055136316 -0.01418766
000020 ab 62 42 bd 2c bf 51 3d a3 17 2b 3d 6e 90 28 3d
       -0.04745738 0.051207706 0.04177059 0.041153364
000030 2b 71 fe 3d fa 2c c8 3d 1b 3c 7b 3d 6e 01 2f 3c
       0.12423929 0.097742036 0.061336618 0.010681493
000040 52 30 3d 3d 03 78 5b 3c 18 ac c6 3d 11 9b 18 3d
       0.04618866 0.013395312 0.09700793 0.037257258
000050 4e bb 0a 3d 2d ca 0a bd b1 f6 5c 3c f9 9f c6 3c
       0.033870034 -0.033884216 0.01348655 0.024246203
000060 0c 9a 71 3b 37 13 f0 3b 9f 9f fc 3c 6f 17 c1 3b
       0.00368655 0.0073265093 0.030837832 0.005892686
000070 8e 52 34 3d 69 4d c1 bc b3 81 49 3c 00 c9 b5 3d
       0.044024043 -0.023596482 0.012298989 0.08876228
000080 71 eb 59 3c 7a 1b e3 ba 0c 31 6b 3d 5e 85 bf bb
       0.0133007625 -0.0017326914 0.05741982 -0.005844756
000090 d3 d7 39 3d 1c 14 05 3d 4a f5 ac 3c c1 c9 e5 bc
       0.04537184 0.03248988 0.021113057 -0.028050305
0000a0 f3 2e 6f bb ea 59 fb 3b 49 f8 d4 3c c6 0c ca bb
       -0.003649649 0.0076706307 0.025997298 -0.0061660735
0000b0 b9 61 d0 bb 5e 77 10 3d 70 c4 7f 3d 65 f4 5f 39
       -0.0063593057 0.035270087 0.062443197 0.00021357981
0000c0 e2 2d e1 3c 75 41 3f bb 10 77 b0 bc 2e bb a5 bc
       0.027487699 -0.0029183303 -0.021541148 -0.020230856
0000d0 17 bf 1a bc 14 c4 2f 3c 1b 6d 6a bd d0 53 0f be
       -0.009444973 0.010727901 -0.057232957 -0.13996816
0000e0 1a 0c 03 bd 03 73 60 bb 5c c0 10 be f3 cb 84 bd
       -0.031993963 -0.003424824 -0.1413588 -0.06484213
0000f0 c3 2c c9 3b 2a 92 b9 bd 50 a1 76 bd 8a ee ff bc
       0.006139369 -0.09061082 -0.060212433 -0.031241674
000100 55 3b 8c bc bf 11 52 bd 69 dc f4 bc 32 3f 61 bc
       -0.017118135 -0.051286455 -0.029890256 -0.013747977
000110 cd 2d 82 3b ee d3 a3 bc aa db fe bc 59 35 5a bd
       0.003972745 -0.019998517 -0.031110603 -0.053273533
000120 c9 90 79 3c 55 fa 9d 3d bc d1 bf bd bd 0b 22 3e
       0.015232273 0.07713763 -0.093661755 0.1582479
000130 b8 6c 70 3e 09 42 0b 3e 17 fd ec ba 39 2f c5 3c
       0.23478973 0.13599409 -0.0018080798 0.02407037
000140 4a 41 03 bd 65 5f 9b 3c 13 fa 45 3d 2b 79 76 3c
       -0.032044686 0.018966386 0.048334192 0.015043537
000150 89 39 96 3b 77 ba e1 bc 8e 21 65 bc c1 90 11 bc
       0.0045844954 -0.027554734 -0.013985051 -0.00888461
000160 5a 8a 84 3c 7c 6c 40 3b d8 bc a0 3b b2 b9 22 bd
       0.016179252 0.0029361537 0.0049053244 -0.039727874
000170 7c 9c 91 bc 62 5e ee 3c 0d 4a 85 3d 79 ab 4c 3d
       -0.017774813 0.02909774 0.06508265 0.049968217
000180 e7 a1 89 bc d5 37 c3 3c 29 d7 d5 3c b3 11 0c bd
       -0.016800834 0.023830334 0.026103573 -0.034196567
000190 4e 9b fe bb 50 a9 8c bc b1 aa e7 bc de f2 ff 3b
       -0.0077699786 -0.017170578 -0.028279634 0.0078109344
0001a0 00 5f 64 3c d4 6b d2 bc a3 a4 b0 bc c3 1e 04 bd
       0.013938665 -0.025686182 -0.02156288 -0.0322559
0001b0 59 eb 83 3d 0b c9 0b 3d dc 0b d7 3b ce 9a 62 3c
       0.064413734 0.034127276 0.006562693 0.013830854
0001c0 09 6e 1b bc 5c 93 6e 3c f8 dd b6 3d ea 70 08 3d
       -0.009486684 0.0145615 0.08929056 0.03331081
0001d0 c4 08 c8 bb f6 ea c0 bb 0d c3 da 3c 5c 30 1b 3d
       -0.0061045606 -0.0058873845 0.026704336 0.037887916
0001e0 78 c0 1e bd a3 72 4f 3d b3 88 fd bc 41 20 96 bc
       -0.03875777 0.050646435 -0.030948972 -0.018325927
0001f0 0e 98 03 bd 1f 86 21 bc bd 26 ea bc c6 f3 25 bd
       -0.032127433 -0.009858637 -0.028582925 -0.040515684
000200 83 20 72 bd e9 e7 22 3c ab bf 03 3d 2f d3 a6 bc
       -0.059113037 0.009942987 0.03216521 -0.020364372
000210 3a 1a 48 bd 5e 7d 2e bd 71 7a ac bc 1f 5e c1 3c
       -0.048853137 -0.04260003 -0.021054478 0.02360445
000220 11 4b 3f 3d 27 98 2d 3d cb 31 db 3c 8e 71 c6 3c
       0.04670245 0.042381432 0.026757142 0.024224069
000230 91 b0 f1 3c 79 04 a2 3c 43 8b 26 3c fd de 43 3c
       0.029503139 0.019777523 0.0101650385 0.01195502
000240 76 cf 4f 3d ae c1 d9 3c 65 49 cf 3c 0b 65 64 bc
       0.05073496 0.026581611 0.025303552 -0.013940106
000250 af b6 1b 3a 6b 68 aa 3c a8 d2 c0 3c fb cf 26 ba
       0.0005940003 0.020801743 0.023537949 -0.0006363389
000260 90 9d 28 bc b6 16 03 3d 6f 16 2e 3c 1f f4 c9 bc
       -0.010291472 0.03200408 0.010625466 -0.024652539
000270 b7 e8 76 bb 2a d0 97 3d ed 2e 22 3c 92 00 ef bc
       -0.003767533 0.07412751 0.009898883 -0.029175077
000280 11 9d 6b bc cb 6f c6 3a 65 9a 92 3c 59 fd 91 3c
       -0.014380709 0.0015139518 0.017895887 0.017821
000290 16 e6 2e 3d 26 b4 37 3b aa 04 08 bc e9 f6 ba 3c
       0.042699896 0.002803096 -0.008301893 0.022822814
0002a0 d1 94 5b 3d 11 d2 e4 3c a0 79 a0 ba d3 d2 b8 bc
       0.05360872 0.027932199 -0.0012243278 -0.022561466
0002b0 58 aa 42 bb 3c 33 b0 bc 2a 8f 88 ba a3 59 8e 3a
       -0.0029703584 -0.021508805 -0.0010418643 0.0010860454
0002c0 15 03 bd bc 2b af d6 bc 3c ad 9e 3b 1e 4b e7 bc
       -0.023072759 -0.026206573 0.0048424285 -0.02823406
0002d0 26 36 f6 3c 29 6a d8 3c 68 d1 7a bc aa 54 48 3c
       0.030055117 0.026417809 -0.015308715 0.012227217
0002e0 6c 86 dc 3c 3a 66 77 b9 a4 54 08 bd 8f 4b 32 3c
       0.026919566 -0.00023593838 -0.033283845 0.010882272
0002f0 69 09 59 bc 33 13 6f bc 34 0a 7c bd 4d 9b d1 3c
       -0.013246872 -0.01459198 -0.061533168 0.025586748
000300 54 63 fb 3c 6c 23 85 3d e3 d5 37 bd 66 f1 18 bd
       0.030687012 0.06500897 -0.044881713 -0.03733959
000310 dc 70 2f 3d d1 bd bd 3c 5b d9 90 bd 19 8c 6c 3d
       0.04283224 0.0231618 -0.07072707 0.057750795
000320 70 42 84 3d 3d 1e 97 3c 1b 73 22 3d c0 ac 36 3a
       0.064579844 0.018447036 0.039660554 0.0006968491
000330 a2 cd 6a 3d 1f 0e ad 3d 5d 48 5f bc fe ea 7b bd
       0.057325013 0.08449959 -0.013628093 -0.061503403
000340 64 b5 7a bc 05 83 b0 3c 6d 2c da 3c 48 e3 7d bc
       -0.015302036 0.02154685 0.026632512 -0.015496083
000350 56 d4 ee bc 48 07 cb 3c 78 d8 60 3c f3 c5 da bb
       -0.029153984 0.024783745 0.013723485 -0.0066764294
000360 18 c5 db 3b 16 a2 a2 bd f0 bb 92 ba ae 99 b7 3c
       0.006706845 -0.07941072 -0.0011194926 0.022412147
000370 55 c5 60 bd 70 10 f1 bc 9f 21 c3 3b e4 12 1c bc
       -0.05487569 -0.029426783 0.0059549357 -0.009525988
000380 28 39 de bc 86 22 66 bd a2 20 b9 bd 83 73 b4 bc
       -0.027126864 -0.056185268 -0.09039427 -0.022027737
000390 9d d7 24 3d f1 4b 8a 3d a5 6e c7 3c 1a 13 76 3c
       0.040244687 0.06752766 0.024344752 0.015019203
0003a0 97 d6 4a bc 68 ef a3 bc b6 26 8e 3b 85 36 09 bd
       -0.012380264 -0.020011619 0.004338111 -0.03349926
0003b0 ba 49 88 3c 72 8f d1 3d 90 aa 17 bc 02 3e ed b9
       0.016636718 0.10232438 -0.009256974 -0.00045250362
0003c0 2a e3 81 3d 94 77 9a bb 3b fa ba bc 97 5d 10 3c
       0.06342156 -0.004713962 -0.022824397 0.008811376
0003d0 b7 5a 0f 3d 69 38 bd 3d cf 58 bd 3c 54 14 8d 3b
       0.03499862 0.09239275 0.023113636 0.004305402
0003e0 8b c4 11 3d 51 16 30 3d 4c 51 69 3d 65 60 4d 3d
       0.03558783 0.042990033 0.056962296 0.050140757
0003f0 da fd b9 3d 88 be d3 3c cf 0e d8 3b fa 4e 20 3e
       0.090816215 0.025847688 0.006593562 0.15655127

onnx::Conv_84 f4 [28]
000000 b3 30 b7 be af f7 56 3f 23 74 4e 40 87 77 5b 3f
       -0.35779342 0.83971685 3.2258384 0.8572926
000010 24 af 03 40 c2 db 95 3f e8 60 eb be 76 a1 14 3f
       2.0575647 1.170769 -0.4597237 0.5805887
000020 14 a6 74 40 7b 9d 51 40 81 e8 af 3f 0c fc e2 3f
       3.8226366 3.2752368 1.374283 1.7733169
000030 dc 21 99 3f 8a df 22 c0 d6 e4 f3 bf 55 9d e1 bf
       1.1963458 -2.5448937 -1.905421 -1.7626139
000040 8a 97 cf 3e 4e 4d bb bf 0d b6 20 3f 93 7f f6 bf
       0.40545303 -1.4632967 0.6277779 -1.9257683
000050 aa 01 43 c0 74 2f 06 c0 fb 63 66 40 c1 52 02 c0
       -3.0469766 -2.0966463 3.5998523 -2.036301
000060 a4 ee 4e 40 d5 e5 5b 3e cb 14 46 3f 2f fa f0 3f
       3.2333155 0.21474393 0.7737548 1.882635

onnx::Conv_86 f4 [28, 28, 3, 3]
000000 bd d6 59 3b 64 09 09 bd cb 6f 2b bc c8 0c 12 3c
       0.0033239566 -0.03345622 -0.010463665 0.00891418
000010 bb b2 94 bc 0d b8 80 bc 68 9c 41 3d f3 f1 51 3c
       -0.018151632 -0.015712762 0.0472683 0.012814033
000020 a0 d8 53 bc 2c 56 b4 ba 3b 2f 82 3b cd 8f 5e 3c
       -0.012930065 -0.0013758591 0.0039729155 0.013584089
000030 cf 0a 88 bc 4c 94 99 bd 30 1f c9 bc 82 e8 14 3c
       -0.016606716 -0.074989885 -0.024551004 0.009088637
000040 bf 28 ca bc 69 6e 0c bd 1e 7b 8c bd 11 28 98 bd
       -0.024677632 -0.034284983 -0.0685942 -0.07429517
000050 d0 69 d6 ba d9 f0 c4 bb 84 22 8b 3c 5e 81 21 bd
       -0.0016358439 -0.0060101566 0.016984232 -0.039430015
000060 4f 5f a7 bb 0e 6a 37 bd c5 b8 a5 3b f0 ae 4a 3d
       -0.005107797 -0.044778876 0.0050574266 0.04948324
000070 91 ef 80 3d 2d 32 79 3c 40 28 d7 3d 87 6f ca 3d
       0.06295694 0.015209717 0.10505724 0.098845534
000080 fb 70 dd 3c a1 3e 0a 3d 1b 24 84 3d 02 2c 7f 3b
       0.027031412 0.033751134 0.06452199 0.0038936143
000090 c8 86 5b bd 84 2a a4 bd 7a 2b df bc 01 ad a3 bd
       -0.053595334 -0.08015922 -0.02724241 -0.07991982
0000a0 1c 8a e4 bd 57 a1 61 bd f9 ea 1a bd 43 bf aa bd
       -0.11159155 -0.055085506 -0.037821744 -0.083372615
0000b0 70 ac 0c bd 3c 6e 90 bd 39 42 4b bd 23 71 ca bc
       -0.034344137 -0.070522755 -0.0496237 -0.02471215
0000c0 37 e2 0f bd 63 1f ce 3c b5 05 14 bd a0 4d be bb
       -0.035127845 0.02516145 -0.036138255 -0.0058075935
0000d0 bf a4 8a bd b9 f0 4a bd 19 d6 39 bd bd 31 28 3d
       -0.06769704 -0.049545977 -0.045370195 0.04106306
0000e0 98 54 b6 bc b6 00 0e bd 8b f0 3a 3d 2c 7f 5e 3c
       -0.022257134 -0.034668647 0.045639556 0.013580125
0000f0 c7 84 1c bd ad 47 3d 3c e9 d4 e9 bc 14 26 bc 3b
       -0.038212564 0.011552733 -0.028543906 0.005741844
000100 da 03 db bc 8d 15 1d bd d8 f8 89 bb 83 7c 1f bc
       -0.026735235 -0.03835063 -0.0042105727 -0.009734276
000110 91 e7 96 bd 5c e9 af 3b 5a 2e 5b bd fd 2b 10 3c
       -0.073683865 0.005368395 -0.053511 0.00879955
000120 3a 44 ff 3b d0 15 d7 bc c5 bd 43 bc 91 06 e6 bc
       0.0077901157 -0.026255518 -0.0119471 -0.028079303
000130 3a 08 91 bd 44 59 9c bc b7 a6 4a bd f4 d4 62 bd
       -0.07081647 -0.019085534 -0.049475398 -0.05537887
000140 1b b8 9e bc 03 b0 3c 3d 25 b7 4e bd 1d f8 4e 3d
       -0.019374898 0.046066295 -0.05046763 0.050529588
000150 d0 e2 85 bd fa ab 31 be 14 1c 13 bd a2 f0 01 3d
       -0.06537402 -0.1735076 -0.03591545 0.031723626
000160 0c 8c da bd 89 b4 8f 3d 9c b2 88 39 c7 cb 42 bc
       -0.10671243 0.07016856 0.00026073016 -0.011889405
000170 a7 14 f7 bc e3 d9 b6 3c f4 73 a5 3c b7 9c 14 bc
       -0.030161215 0.022320693 0.020196892 -0.009070567
000180 b9 bf cb bc cd 1b fe bc 23 49 30 bd 4c f3 03 3d
       -0.024871694 -0.031019116 -0.0430385 0.032214448
000190 94 4b c4 3c 25 31 c7 3c 21 18 c7 3d eb 0f 76 3d
       0.02396182 0.024315426 0.09721399 0.060073774
0001a0 37 b7 33 3d 6b ee 4f bb af 39 fd 3b a4 7f 2e 3d
       0.0438759 -0.0031727802 0.0077278237 0.042602196
0001b0 f0 05 7a 3a 98 40 58 3c d7 39 81 3c 88 c8 45 3d
       0.0009537628 0.013198994 0.01577465 0.048286945
0001c0 6a 05 d9 3c 5a d5 10 bc 2c 6d 31 3d 89 23 54 3c
       0.02649184 -0.0088399295 0.043317005 0.012947925
0001d0 bd 16 12 3c d6 59 10 3d 3e 26 a0 3d 2c f0 68 3d
       0.008916554 0.035241924 0.07819794 0.05686967
0001e0 d1 1f a3 3d ec 62 0e 3e f8 0b b9 3d 6b e5 17 3d
       0.07965053 0.13904923 0.09035486 0.037084024
0001f0 b9 1a d5 3d bd 6b 34 3d d8 7b a5 3c dd 16 6e 3c
       0.104054876 0.04404806 0.020200655 0.014531818
000200 11 89 ce 3b 61 50 29 3d 1a f4 5b bc c3 6b 8f 3c
       0.0063029607 0.04133642 -0.013424898 0.01750744
000210 6f 1a 8c 3c 3a 4e 01 3c aa 58 7d 3c 74 51 8e bc
       0.017102448 0.007892186 0.015463034 -0.017372824
000220 b5 5d 9e bc 4b b3 79 3c ff 7a 46 3d 83 67 7b bd
       -0.019331792 0.015240501 0.048457142 -0.061378013
000230 e9 14 a8 3c 9a 81 07 bd c5 a6 97 bc 41 b6 7e bc
       0.020517783 -0.033082582 -0.01851214 -0.015546382
000240 b3 d0 72 3c 13 94 15 3d 38 28 b5 3c 4d 38 be 3c
       0.014820266 0.036518168 0.022113904 0.023220206
000250 47 64 56 3d f5 68 ca 3c 15 1c 07 bc 92 8d f2 3c
       0.052341726 0.02470825 -0.008246441 0.029608522
000260 6c e6 b7 3c 65 4f da 3c 92 c1 45 3d b5 85 39 3d
       0.02244874 0.026649186 0.048280306 0.04529353
000270 58 31 b6 3c b1 88 45 3d 6a d1 3f 3d b4 78 a7 3c
       0.022240326 0.048226062 0.046830572 0.020443298
000280 cc 18 d7 3c 38 62 ef 3c 7d 33 8a 3c 03 33 af 3c
       0.026256941 0.029221639 0.016870255 0.021386629
000290 e8 a8 11 3c 6e 23 aa 3c 70 d4 1e bc 00 bc a3 bc
       0.008890368 0.020768847 -0.009694204 -0.019987106
0002a0 6b 1e 85 3c f8 01 5c bd ad 81 73 3c cc de 5c bb
       0.016249856 -0.053712815 0.01486246 -0.0033702133
0002b0 56 ac f6 bc 01 6e 30 3c 4f 41 38 bd 21 f7 bb bd
       -0.030111473 0.0107684145 -0.044984158 -0.091779955
0002c0 c7 76 99 bb 2d 63 6a bc 40 f6 b3 3c 20 97 e2 3c
       -0.004683349 -0.014305872 0.021968007 0.027659953
0002d0 d0 02 eb bc 64 f2 36 bd e5 e6 c0 bb c2 de 04 3d
       -0.028687865 -0.044664755 -0.0058869 0.032439
0002e0 f4 a8 3b bd a2 ee 08 bc 76 99 a4 3a 99 7a 01 3c
       -0.045815423 -0.008357676 0.0012557942 0.007902765
0002f0 68 f5 c1 bc 65 6f 98 3c 6a 92 df 3c 60 03 f9 3c
       -0.02367659 0.018607805 0.027291495 0.030397117
000300 6a 96 b8 3c 56 26 1d 3d c1 b6 be 3c 77 89 54 3c
       0.02253266 0.038366638 0.023280503 0.012972227
000310 f8 9a 48 bc 5c 40 0b 3d 0a db 59 3d 67 0a 11 bb
       -0.012243979 0.033996925 0.053187408 -0.0022131444
000320 e7 44 87 bb f8 66 42 3c 9b ee 9d bd f3 b4 e8 bc
       -0.004128087 0.01186537 -0.07711526 -0.028406596
000330 5b 6a b5 3c 4b 8c a5 3d f3 53 4a bc 8d 4f 32 38
       0.02214544 0.080833994 -0.012349117 4.2512595e-05
000340 af cf a1 bd 7e 5d 2f 3b c4 35 91 bd 26 61 d5 3c
       -0.079009406 0.0026758607 -0.07090333 0.0260473
000350 b3 53 9e bb a6 95 e4 bb 35 e1 e1 3b 7d ae 57 3c
       -0.004831755 -0.0069758473 0.006893302 0.01316416
000360 16 e4 23 bd 47 f1 c2 bc ab a0 3e bd f9 d4 8f 3c
       -0.04001244 -0.02379669 -0.046539944 0.017557608
000370 6d c8 b1 3b a2 ff ef bc 2c cf 2c bc 3b 14 74 bc
       0.005425504 -0.0292967 -0.0105474405 -0.014897401
000380 dd f8 21 bd 52 6b 32 3c f7 de 8b bc a3 1c 32 bc
       -0.039543975 0.010889845 -0.017074091 -0.010871085
000390 b0 ae 9c 3b 79 b0 4b bd a3 52 00 bd 15 0a d8 bb
       0.0047815666 -0.049728844 -0.03132881 -0.0065929987
0003a0 0d 77 89 3b a4 51 08 bb c0 1d ad ba 87 5f 24 bd
       0.0041951 -0.0020800615 -0.0013207719 -0.040130164
0003b0 ac ab b1 3b 45 c4 22 bb 39 4b 8f 3b 93 a2 1f bc
       0.005422076 -0.0024836224 0.004372981 -0.009743351
0003c0 0f 22 b0 3c 98 1b 31 bd fa 36 04 3d 1f 90 47 3c
       0.021500615 -0.043239206 0.032278992 0.012180357
0003d0 88 13 bd bd 06 1d a4 bc f5 71 82 bd d4 be 30 be
       -0.09232241 -0.02003337 -0.06369392 -0.17260295
0003e0 a0 e1 0a be a0 2f 2b bc c3 86 fb bd 1d 10 40 3c
       -0.13562632 -0.010448366 -0.12281563 0.011722592
0003f0 28 ce 3a 3e 3f 51 a5 bd 3c e5 73 3b 97 bc af 3e
       0.18242705 -0.08072137 0.0037215492 0.3432357

onnx::Conv_87 f4 [28]
000000 c0 17 cb 3f f5 91 bf bf 17 a9 59 3f da 60 1d bf
       1.5866623 -1.4966418 0.85023636 -0.6147591
000010 1b c8 09 3f e4 68 d0 3f 94 8c 85 be 8f 76 8c 3f
       0.5382096 1.628201 -0.26083815 1.0973681
000020 98 a6 2a bf 22 2b 42 3f b2 e0 01 bf 5e cb ca 3f
       -0.6666045 0.75847065 -0.5073348 1.5843313
000030 2e 71 9e 3f 06 3a 87 3f 81 7e c6 3f 0a 89 23 40
       1.237829 1.0564582 1.5507356 2.5552392
000040 42 7b a9 3f d3 fe f7 3e 81 1e 1d be c6 94 1b 40
       1.324074 0.48436603 -0.15343668 2.4309554
000050 a7 77 1f 40 63 d5 39 bf e4 19 0f 40 ff 77 81 be
       2.491678 -0.7259123 2.2359552 -0.25286862
000060 0c 2c 62 bf 40 e3 4a bf 6e 73 a1 3f 10 12 11 3f
       -0.8834846 -0.79253006 1.2613351 0.56668186

onnx::Conv_89 f4 [28, 28, 3, 3]
000000 dd cc ab bc ac 26 5c bd 64 20 6f bd 2e 80 50 bd
       -0.02097171 -0.053747818 -0.0583805 -0.05090349
000010 ba 5d 37 bc a9 2d 8d bd 2a f1 19 bd 33 49 87 bd
       -0.01119178 -0.068934746 -0.037583508 -0.066057585
000020 65 14 ff bc 9c 46 95 bd eb e5 50 3d 1e 6a 46 bd
       -0.031137655 -0.07288858 0.051000517 -0.048441045
000030 9e b1 89 3e 9f 8a a7 3e 44 bc bf 3d c2 3c 52 bc
       0.26893324 0.32722947 0.09362081 -0.012831869
000040 86 da 4b 3c 7c 4e e2 3c 0a 57 9e 3a 77 1b 0f 3e
       0.012442237 0.027625315 0.0012080383 0.13975321
000050 20 9e b0 3d 06 0f 58 bc 73 f1 cf 3d 59 6d bd bd
       0.0862391 -0.013187176 0.10153475 -0.09249372
000060 80 5f 11 bc 40 4d 51 bd 89 0d 96 bd cd ab bd bb
       -0.008872867 -0.051099062 -0.073268004 -0.0057883025
000070 1a ab 97 3c 35 0f b2 bc cb bf e8 bc 91 02 05 3d
       0.018514205 -0.021735767 -0.028411767 0.03247315
000080 a6 7a f3 bb 6e 9a f7 3b c0 fd 7b bc d1 bf f6 bc
       -0.0074303923 0.0075562513 -0.015380323 -0.030120762
000090 ff c2 b0 bc 12 6c 34 bc 9e 60 13 bd 04 ee ad bc
       -0.021577356 -0.011012094 -0.035980813 -0.021231659
0000a0 7b f7 3e bb 3a e9 01 bb 57 d0 74 3c 67 79 d7 3a
       -0.002913921 -0.0019822852 0.01494225 0.0016439379
0000b0 f4 fb 75 3c 6a ca f5 3b c0 70 13 bd d3 68 a5 bc
       0.015013684 0.0075009363 -0.0359962 -0.020191586
0000c0 57 2f 6d bc 0a 96 c0 3d cc 36 c1 3d 8b 6e b7 bc
       -0.014476619 0.09403618 0.0943428 -0.022391578
0000d0 5e 5c 9a 3d e3 4a 4f 3b b2 96 ea 3c 1a 19 88 3b
       0.07537149 0.003163033 0.02863631 0.004153383
0000e0 3f 71 23 3d fb c1 1d 3d 2f 7c 2a 3d e9 b6 24 3d
       0.03990292 0.038515072 0.041622337 0.0402135
0000f0 22 32 12 bc 39 39 f4 3a 91 d4 3b 3d 2e 78 aa 3c
       -0.008923085 0.0018632776 0.045857016 0.02080926
000100 93 26 86 bc 40 3b da bc 40 eb 08 bd 0a 31 03 3e
       -0.016375815 -0.02663958 -0.033427477 0.12811676
000110 f8 36 86 bc 8d 9e 7d bc 1e ee 7f bd 27 77 13 bd
       -0.016383633 -0.015479696 -0.062482946 -0.036002304
000120 22 d3 90 bc bd 1e b3 3c f4 a0 4f bc f2 a8 09 3d
       -0.017678801 0.021865243 -0.012672652 0.033608384
000130 a9 e8 1b 3d 94 5a cb bb 1b 9c ac bc 08 f9 be bb
       0.03806368 -0.006205866 -0.02107053 -0.0058280267
000140 f3 6d d7 bc 39 5e 76 bd 1d 26 f5 bc 48 9f 92 bd
       -0.026297545 -0.06014845 -0.0299254 -0.07159287
000150 d9 e4 6b bd c6 b9 4e 3e 40 b8 09 3d a7 b2 1e 3d
       -0.057591293 0.20188054 0.03362298 0.038744595
000160 6f 2d ce 3c ca 36 c0 bd 7f 88 7c bc 07 c4 1a bd
       0.025168149 -0.0938545 -0.015413403 -0.037784602
000170 6a f9 4e bd 6d cb 10 3e 03 a9 77 3e f4 0d 48 3d
       -0.05053083 0.14140101 0.24185567 0.04884143
000180 68 ae 82 bd fc 63 80 3d 3c df 84 3b a6 94 fb bc
       -0.063809216 0.062690705 0.004054932 -0.03071053
000190 22 28 ff bc 73 d9 c3 bc ea e0 9b bc d6 3c f0 3d
       -0.031147067 -0.023907399 -0.019028146 0.117303535
0001a0 ae 6d a6 3d f3 1e aa bc c8 6c a7 3c a4 67 de bb
       0.081263885 -0.02076671 0.020437613 -0.0067872573
0001b0 7e 25 2a 3a 2c d7 94 3b f7 d4 17 bd 38 39 94 3c
       0.0006490572 0.004542252 -0.037068333 0.01809369
0001c0 b0 c2 8f 3d d7 f4 dc 3c b3 2c cd bc 77 33 d1 3c
       0.070195556 0.026972217 -0.025045728 0.025537236
0001d0 90 6d 92 3b ae 64 16 3c 55 17 4b 3d 88 7b c8 3b
       0.0044686273 0.009179277 0.049582798 0.0061182417
0001e0 f0 5f 04 bc 52 fd fe bc 07 75 4b bd b7 c0 cf 3c
       -0.008079514 -0.031126652 -0.049672153 0.025360448
0001f0 69 ab 54 3d 89 01 93 3b 52 47 85 bb 03 64 0d 3c
       0.051921282 0.004486267 -0.00406734 0.008629802
000200 5a 0a de 3b 27 ca 7c 3d 0a d4 97 3d 5f ec 45 bc
       0.0067761363 0.061716225 0.0741349 -0.012080281
000210 59 9c dd 3d a6 93 03 3e eb eb 19 3c 1c 93 2d 3c
       0.108208366 0.12849292 0.009394626 0.010594156
000220 1d 4f 36 bb 3a 47 37 3d 80 59 37 3c de a2 69 3e
       -0.0027818151 0.04474566 0.011190772 0.22816035
000230 5f 40 68 bd 2c 43 f0 bc d9 d8 41 3b 30 8f a7 3d
       -0.056702014 -0.029328905 0.0029578714 0.08181608
000240 bb c3 b4 bc e0 ed c5 3c 1b 7f d3 3c c5 8c 97 3d
       -0.022065988 0.02416128 0.025817445 0.073998965
000250 3b 01 7a 3d 47 d1 da 3c 61 b8 ed bc ea 28 d2 3b
       0.06103633 0.02671112 -0.029018583 0.0064135687
000260 32 14 61 bb 2c 82 78 3c fc b0 d4 3a 39 a1 54 3d
       -0.0034344313 0.015167754 0.0016227062 0.051911566
000270 ff 79 c0 bc ed cc 72 bc 3b c5 a7 3c 66 e1 1f 3d
       -0.023495672 -0.014819366 0.020479789 0.039033316
000280 9a 59 25 bd d3 30 8a 3c 1e a2 72 3c fb 85 fa 3d
       -0.040368654 0.016868984 0.01480916 0.12232586
000290 af eb 34 3b 58 07 f3 3c 6d 0f 3a 3e 96 34 7a 3d
       0.0027606299 0.029666588 0.18169947 0.061085306
0002a0 51 fd e2 3c 7a 64 7f 3d 9d ba 37 3d a5 ea 30 bd
       0.027708681 0.06235168 0.044855703 -0.043192524
0002b0 c7 f4 c0 bc 35 1a e7 3c b2 5b 12 be e7 c7 9e bd
       -0.023554219 0.028210739 -0.14292791 -0.07752972
0002c0 88 4f dc bd 68 b0 64 3d cd db 44 3c 1d ff 5f bc
       -0.10757357 0.055832297 0.012015295 -0.013671664
0002d0 7b b7 92 bd 07 41 c4 3d b1 20 c7 3c 9d 28 b3 bd
       -0.07163902 0.095827155 0.02430758 -0.08747981
0002e0 28 ac e4 bd da 2c 30 3c a1 5b 45 bd 7a e7 44 ba
       -0.11165649 0.010752881 -0.048183087 -0.00075112993
0002f0 5a e8 45 bc 11 c4 cf bc 61 68 92 3b 99 81 0f 3c
       -0.012079323 -0.025362046 0.0044680093 0.008758926
000300 e2 65 f6 3b 27 f7 a4 3d ab f1 8d 3c e4 28 dd 3c
       0.0075194696 0.08054953 0.01732715 0.026997037
000310 08 7a 6b 3c ee 1c ef 3b 4d 1c 0b bc aa be 22 bd
       0.014372356 0.00729715 -0.008490634 -0.039732613
000320 41 43 76 bc ab 63 35 3c fa 04 2f be c6 44 fe bb
       -0.015030683 0.011071126 -0.17091742 -0.0077596633
000330 59 42 44 bd 51 c2 36 bd f4 bc 09 3c 63 29 64 bb
       -0.047914837 -0.04461891 0.008406866 -0.0034814707
000340 a1 19 02 3d ed 79 02 3d 8c 98 75 3d 14 09 36 3e
       0.031762723 0.03185456 0.059959933 0.177769
000350 e3 77 15 3d 6d 10 76 ba 7f 5a 19 3d 05 0b 97 3c
       0.036491286 -0.0009386603 0.03743982 0.018437872
000360 e0 ea 6f 3b ba db 23 3d e6 26 14 3d 40 13 2d ba
       0.0036608502 0.04000447 0.03616991 -0.0006602295
000370 5d dc 4a bb f1 9c 96 3d 19 d3 6a bd 31 d4 c4 3c
       -0.00309541 0.07354153 -0.057330225 0.024026962
000380 16 e3 34 3d fc 08 9d bc c5 a4 b3 3c 53 59 8b bc
       0.04416188 -0.019169323 0.021929154 -0.017010367
000390 bf 8d 11 3d 10 c8 8a 3d 10 3e 05 3d e1 fa 08 3c
       0.03553557 0.0677644 0.03252989 0.008360595
0003a0 d6 76 7c 3c 74 6f 16 bb 0d 0e 39 3d da 1f 81 bc
       0.015409192 -0.0022954615 0.045179415 -0.015762258
0003b0 dc 69 2f 3c 26 08 79 bc 33 17 3f 3c a0 ba 1d 3d
       0.010706391 -0.015199697 0.011663246 0.038508058
0003c0 40 76 2d bd a9 3d 90 38 28 92 a2 3c ed 98 5d 3c
       -0.0423491 6.87794e-05 0.019845083 0.01352523
0003d0 63 56 26 bb 93 db 2e bb ef 91 0c 3d e8 79 85 bc
       -0.002538108 -0.002668117 0.03431886 -0.016293481
0003e0 16 58 1b bc 6a 90 3b 3c 3a cc 36 bd 39 8d 80 bd
       -0.009481451 0.011448005 -0.04462836 -0.06276936
0003f0 ce f7 c1 3a 9d 3d c6 bc bb 8d 01 bb 84 69 f4 bc
       0.0014798583 -0.024199301 -0.0019768316 -0.02983547

onnx::Conv_90 f4 [28]
000000 5d 98 49 bf 87 05 1c bf f2 e2 0a 40 a4 04 29 c0
       -0.7874811 -0.60945934 2.1701016 -2.6409082
000010 68 b4 fc 3e db 82 e2 3e 1a 64 ca 3f 12 74 3c 3f
       0.4935639 0.4424046 1.5811799 0.7361461
000020 57 80 dd 3e 17 36 28 3f c0 46 01 bd 52 c2 43 bf
       0.43261978 0.65707535 -0.031561613 -0.76468384
000030 60 65 76 3f 90 e7 8b bf f2 b6 a3 3f 88 61 15 40
       0.96248436 -1.0930042 1.2790205 2.3340778
000040 28 d1 3a 3d 0d 73 33 be f0 58 46 3f 27 7f 21 40
       0.045609623 -0.17524357 0.7747946 2.5233858
000050 a4 52 25 3f 1c ca 50 bf a0 06 9b 3f 8f 26 0d c0
       0.64579225 -0.81558394 1.2111397 -2.2054784
000060 41 fc 58 bf 16 b5 ea 3d 9e 07 13 c0 c5 77 a0 3f
       -0.8475991 0.11460321 -2.29734 1.2536551

onnx::Conv_92 f4 [28, 28, 3, 3]
000000 4d 85 18 bb a6 0a e6 3b a0 8c 8a bc 93 84 8b bc
       -0.0023272813 0.0070203124 -0.016912758 -0.01703099
000010 47 22 83 3c 4a 6c fc 3c f4 09 25 3b 18 b9 65 3b
       0.016007556 0.030813355 0.0025182934 0.0035052951
000020 8c 60 8d bb 25 b6 d6 bc 5e a4 9f 3d 80 94 91 3b
       -0.004314488 -0.0262099 0.077950224 0.0044427514
000030 4f 9b 74 3c fe 61 c2 3d 36 75 d1 3c 9a 83 75 bc
       0.014929607 0.09491347 0.025568586 -0.01498499
000040 a0 70 b3 bc d5 bf 46 bc 7a 7c 10 bd f3 29 1f bd
       -0.02190429 -0.012130697 -0.03527496 -0.038858365
000050 f8 09 49 bc ae 0e d2 bc 32 3b e3 bd cd 11 85 bd
       -0.012270443 -0.025641765 -0.11095275 -0.06497536
000060 f4 e6 97 3b e1 cd 8b bd f8 48 45 3c fe a9 fc bc
       0.004635686 -0.06826378 0.012041323 -0.030842777
000070 19 ec 03 3d 1f c0 3c bd 02 e5 96 bc fc 42 d1 3d
       0.032207582 -0.04608166 -0.018419746 0.102178544
000080 9d d4 d9 3c d5 dc 4e bc d6 0f 24 3b cd 2a 7a bc
       0.02659064 -0.012625893 0.0025033853 -0.015268994
000090 bf 83 a0 3c 2b 9d 86 3d 5a 46 4d 3c 60 69 39 3d
       0.019594071 0.06572946 0.01252898 0.04526651
0000a0 eb a5 31 3e 31 a0 d2 3d 14 e3 28 3d df 91 48 3d
       0.17348449 0.1028446 0.041232184 0.04896724
0000b0 af bb eb 3c 3b 78 01 be fb 89 98 bd 3b 03 13 bd
       0.028776018 -0.1264352 -0.07448193 -0.035891753
0000c0 08 5a fb bd dd c5 9c bd 47 6e 48 bd 8b 2a c7 bd
       -0.122730315 -0.07654927 -0.048933294 -0.09724911
0000d0 c4 bd 99 bd 7f c7 79 bd 29 56 16 bd 6e 49 bf 3c
       -0.07506898 -0.06098127 -0.036703262 0.023350444
0000e0 a5 30 73 3c f2 d4 48 bc b5 58 71 bd 0a c1 7c 3d
       0.014843141 -0.012257801 -0.05892249 0.061707534
0000f0 78 c2 a0 3c dc b0 16 bc ed 29 10 bd 1e 69 c2 bb
       0.01962398 -0.00919744 -0.035196234 -0.005932941
000100 f6 0c 48 3a 93 4e 0a bc a0 58 65 bc c5 14 2f bd
       0.0007631326 -0.008441585 -0.013998181 -0.042744417
000110 54 30 17 bd d1 2e 7d bc f0 1c 6b bc 8f fa 5a 3b
       -0.036911324 -0.015453056 -0.014350161 0.0033413505
000120 75 8d 27 3d 04 b2 71 3d 6b c9 63 3d 49 a9 a8 3d
       0.04090639 0.05900766 0.05561201 0.082354136
000130 e4 da a6 3d f9 97 3b 3d 51 a3 be 3d 90 ab a3 3d
       0.08147219 0.04579923 0.09308494 0.07991707
000140 e4 c9 55 3d 49 01 a3 bc 4d 8c 7c bc 56 f0 11 bd
       0.05219449 -0.019898074 -0.01541431 -0.035629593
000150 f4 27 d1 bc 3e ff bd 3c 0e b5 1a bc 13 08 99 3c
       -0.025531746 0.023192998 -0.009442581 0.018680608
000160 e6 bd 10 bb c0 30 0b bd 3c d5 76 3b 46 84 2d 3d
       -0.0022085845 -0.03398204 0.0037663719 0.042362474
000170 b8 d6 a9 ba 36 e7 f3 bc ad 6a 69 3d fb 18 b1 bc
       -0.0012957668 -0.029773336 0.0569865 -0.021618357
000180 71 a9 87 3b 8d 58 82 bc d1 fb 54 bc ff e5 a2 bb
       0.004140072 -0.015911365 -0.012999491 -0.0049712653
000190 59 ec b8 bc 56 c6 a0 ba b6 90 d7 3c f6 a4 25 3d
       -0.022573637 -0.001226614 0.02631412 0.040440522
0001a0 69 80 f3 bb 07 e5 f5 3c ce 33 38 3c 0e f4 e7 bb
       -0.007431079 0.030016435 0.01124282 -0.007078654
0001b0 18 92 c2 bc 0f ab ff bc 9a 1e 03 bd 90 01 60 bd
       -0.023751304 -0.031209497 -0.032011606 -0.05468899
0001c0 a8 15 96 bd af 2e d0 bc d0 e4 4f 3b 88 9a 35 bc
       -0.07328349 -0.025412885 0.0031722076 -0.011084206
0001d0 e5 05 9e ba 76 e4 85 bc a3 2b 0a bc ee df 1d 3c
       -0.00120562 -0.01634429 -0.008433255 0.0096359085
0001e0 35 05 40 3d 22 7b e4 bb 4f f0 8d bd 35 ba 88 3c
       0.046879966 -0.0069726864 -0.06930601 0.016690353
0001f0 81 b3 ff bc ca 51 d0 39 46 73 73 bc dd b9 a2 bb
       -0.031213524 0.0003973379 -0.014859026 -0.0049660043
000200 9f 3c 8d bc aa 5a 39 3c 15 bd be 3d 00 73 26 bb
       -0.01724082 0.01131312 0.09313408 -0.0025398135
000210 3a 6b bd 3a 33 a2 a4 3c 38 62 c8 bc ca f0 b8 bb
       0.0014451512 0.020096874 -0.024460897 -0.0056439387
000220 cb ef 4c bd d2 c8 84 b9 02 a3 0d bd 71 fa 85 bd
       -0.050033372 -0.00025326625 -0.034579284 -0.065419085
000230 f4 1f 0e bd 84 4c 13 3a 59 f8 70 b9 b8 5f c5 bb
       -0.03469844 0.00056190067 -0.000229807 -0.0060233735
000240 65 f5 98 bb e7 18 65 3d a4 5c b1 3c 02 c4 be 3c
       -0.004667925 0.05593195 0.02165062 0.023286823
000250 04 7f 24 3e a5 65 94 3d fe db 7f bc f3 f0 7b 3d
       0.16064078 0.0724595 -0.015616415 0.061509084
000260 0a bf 4f 3c 5d 21 76 3c a4 de 10 bd 16 1b 5f 3c
       0.012679825 0.015022603 -0.035368577 0.013617298
000270 ee ea e5 bc 34 2a b3 bc 77 a2 58 bd 1d 52 7e 3c
       -0.028066125 -0.02187071 -0.052889314 0.015522507
000280 04 eb 7b bc 12 c3 aa 3c a4 c2 e7 3c bb f5 87 3c
       -0.015375856 0.02084497 0.028291054 0.016596666
000290 91 e0 08 3d cf ce 65 3d 8c 8e f6 3d b2 36 0d bd
       0.03341729 0.05610543 0.120389074 -0.03447599
0002a0 cc c9 5a 3d d3 2d 03 bd ce 4c 1c 3d d1 12 8b bb
       0.053415105 -0.032026123 0.038159184 -0.0042441864
0002b0 89 2b 3a 3d 76 b8 a6 3c 52 6a cd bc e8 cf 0e be
       0.045451675 0.02035163 -0.025075112 -0.13946497
0002c0 25 15 c2 bc 38 c3 45 3c 3a f6 91 bd 85 a4 da 3c
       -0.023691723 0.01207047 -0.07127042 0.026689777
0002d0 e7 0f 21 3d aa 15 87 bd 6b b2 a4 3c 03 59 80 3d
       0.039321806 -0.06595929 0.020104608 0.06266978
0002e0 0d cf d1 3d dd e5 7d bd 57 bb 9e bb 9c 2a 5b bb
       0.1024457 -0.061986793 -0.00484411 -0.0033442145
0002f0 d9 87 3e bb 1a 5b fb 3c cc b5 84 3c d2 41 01 3c
       -0.002907267 0.030683089 0.016199969 0.007889228
000300 f1 5e 4e 3d ca 40 a8 3d 9c d3 94 3d ee 3c 18 3c
       0.050383512 0.082154825 0.07266924 0.0092918705
000310 d5 81 07 3d a5 0e 0d 3d 23 e8 d0 bd c5 cb 90 3c
       0.0330828 0.034437794 -0.102005266 0.01767529
000320 f6 cd a6 bc 39 b8 1f bd 04 7c a6 3d 10 da 99 3d
       -0.020361882 -0.038994048 0.08129123 0.07512295
000330 56 2f 9c bd 25 3b 46 bd e4 14 f0 bc aa 7e 18 3b
       -0.07626216 -0.04839625 -0.029306836 0.0023268857
000340 90 a0 ac 3c 06 91 4b 3c 80 a6 d1 3c 00 47 80 3d
       0.021072656 0.012424713 0.025592089 0.06263542
000350 65 95 fc bc 40 38 64 b9 46 7c f1 bb 50 df ff bb
       -0.030832956 -0.00021764729 -0.007369551 -0.0078086033
000360 0e 44 c3 3b 12 ba a5 bb 21 f7 81 3c d1 60 d6 3b
       0.0059590405 -0.0050575817 0.01586491 0.006542303
000370 03 39 94 3c 88 89 c0 3c 44 49 34 b9 51 4a 41 3d
       0.018093592 0.02350308 -0.00017193431 0.047190014
000380 6b 42 46 3c fe 9f 10 bb b5 a7 e9 bb 89 87 c1 3c
       0.012100796 -0.002206802 -0.007130588 0.023624199
000390 f6 03 e6 3b 97 e0 59 3c ec 88 31 3c 7a bf 08 3c
       0.007019515 0.013298175 0.010835867 0.008346433
0003a0 3c 84 af 39 a4 ce 5c 3c e2 30 c5 3a 9d 9d f9 3d
       0.00033477123 0.013477001 0.0015044475 0.121882655
0003b0 37 1e 1a 3d f0 5c 49 3c 8a 0b 65 3e 6e 13 e0 3d
       0.03762647 0.012290224 0.22367683 0.10941206
0003c0 c9 51 a9 3c 92 96 05 3d e5 a6 2e bc 8d 54 4e bd
       0.020668881 0.0326143 -0.010659908 -0.050373603
0003d0 52 96 8b 3c bd eb 96 bb 5f fd 34 3d 71 f1 69 3e
       0.017039452 -0.004605739 0.044186946 0.22846009
0003e0 24 e2 80 bc 29 d2 0b 3c c9 91 a5 3c 94 05 a2 3b
       -0.015732832 0.008533993 0.020211117 0.0049445126
0003f0 e2 d9 29 ba 78 f1 09 3d 27 1d 47 bc bc c3 bd 3c
       -0.00064793054 0.03367755 -0.012152947 0.023164622

onnx::Conv_93 f4 [28]
000000 20 f0 2d bf ca ec 66 be 35 66 7e 3f ca 8d 0d bf
       -0.67944527 -0.22551265 0.99374706 -0.5529448
000010 82 38 a1 3e fc f2 f3 3e bd b3 38 bf bf 80 0a 40
       0.31488425 0.4764632 -0.7214926 2.164108
000020 0c 71 fd 3f 6e 56 9b 3f 58 78 ba 3d cf be a3 c0
       1.9800124 1.2135751 0.09104985 -5.117042
000030 1e f7 02 40 48 37 27 3e 44 cc bd 3e 84 4c 86 be
       2.0463328 0.16329682 0.37069905 -0.26230252
000040 7f 8b 7f be 5a 66 a7 bf a6 15 07 c0 65 f5 07 3f
       -0.24955557 -1.307811 -2.1106963 0.5310882
000050 dc 5c 66 3f 8f ae f1 bf e2 62 5f bf bc e5 d7 be
       0.8998544 -1.8881396 -0.8726026 -0.4216746
000060 8e db b9 bd c6 f9 74 3f c4 57 f7 be b3 64 96 3f
       -0.0907508 0.95693624 -0.48309147 1.1749481

onnx::Conv_95 f4 [27, 28, 3, 3]
000000 c6 d4 f1 bd 83 53 d2 bc f5 a2 39 bc f8 f8 05 3e
       -0.118081614 -0.025674587 -0.011330356 0.13083255
000010 67 3c cb bd 41 3e 8f bd b3 5d d0 3d b8 8d 95 3d
       -0.0992363 -0.06994296 0.10174122 0.07302421
000020 31 74 04 bc d6 07 2f 3e 56 32 85 bd be cd df bc
       -0.008084343 0.17092833 -0.065037414 -0.027319785
000030 c9 15 8c bc 6f 2a 42 bd 57 ad 45 3c f6 07 82 3b
       -0.017100232 -0.04740375 0.012065253 0.003968234
000040 63 0b 05 3e 66 a1 04 bd 3b fd 5b 3c 10 31 fb bc
       0.12992625 -0.032380484 0.013427074 -0.030663043
000050 49 f8 4f 3d 1a d8 28 3e 9b 6a a3 3d 59 2a 0a 3d
       0.050773893 0.16488686 0.07979318 0.033731792
000060 c1 1f 18 bd 74 1a b8 bd ff c6 db bd 07 ec 8c 3d
       -0.037139658 -0.089894205 -0.10731315 0.06880956
000070 ee 51 22 3e aa 7f f8 3b 5e 3d 62 3e 46 7b f2 bd
       0.15851566 0.007583578 0.22093722 -0.11839919
000080 68 69 f5 3c 95 17 c3 bd 4c 88 0f be 04 fa 4d bc
       0.029957488 -0.09525982 -0.14016837 -0.012571815
000090 a6 b2 06 3d 64 55 aa bc c1 35 57 3e b8 46 55 be
       0.032885216 -0.02079267 0.21016599 -0.20827758
0000a0 2b e7 a2 3d e9 0f 2b 3e a5 5f e3 bd 84 e8 5b 3d
       0.07954248 0.16705288 -0.11102227 0.05368854
0000b0 ce 87 fe 3b cf ec ed 3b e8 aa 25 be d2 6b 68 bc
       0.007767654 0.007260896 -0.16178477 -0.014185863
0000c0 a9 1d 05 3e bb b9 ba bd bb 28 48 3d e0 48 82 3d
       0.12999596 -0.091174565 0.04886697 0.06361556
0000d0 7e 30 0e bd 26 46 e8 3c 02 79 ea bd 8c 5d 75 3e
       -0.034714215 0.028353762 -0.11448862 0.23961467
0000e0 0b e6 58 bd d7 e9 21 be a9 a6 84 3e 00 4c 83 bd
       -0.05295376 -0.15811859 0.25908402 -0.0641098
0000f0 e0 7a a1 bd d2 46 7a be 25 6e fc 3d 9a 95 08 be
       -0.07884765 -0.24441078 0.12325696 -0.13338318
000100 55 b4 a3 3e 5a fa 4f bc da a2 76 be d2 37 37 bb
       0.3197352 -0.012693966 -0.2408556 -0.0027956855
000110 ec aa 4e be 12 09 1c 3e ab f1 73 3d 7a 88 8e 3a
       -0.20182389 0.15237835 0.059556644 0.0010874413
000120 ba bb d8 3c b9 47 f3 bc ba d2 8c b9 a9 41 ee 3d
       0.026456703 -0.029697286 -0.00026859884 0.116336174
000130 37 bb 1f bf 95 d5 1c 3c 64 36 dc 3d ef 72 33 be
       -0.6239504 0.009572406 0.10752562 -0.17524312
000140 ff f8 68 bd 27 54 28 bd d0 4e 23 3e f7 e1 b8 bd
       -0.056878086 -0.04109588 0.15948033 -0.090274744
000150 1f 42 ea 3d 1e 48 55 3d 5b 10 6b bb e8 5c 0b 3e
       0.11438393 0.05207073 -0.0035867903 0.1360966
000160 a1 c8 46 be 32 d4 4c 3c 03 36 5d be b8 dd 9f bd
       -0.19412471 0.012501763 -0.21602635 -0.07805961
000170 b2 bc 69 bd 03 86 70 be cd 4b 1c 3e b1 10 9b bd
       -0.05706472 -0.23488621 0.1526329 -0.07571543
000180 81 09 ab bd af 6f 1e be c4 fe 6c bd 6f 55 92 3e
       -0.08351422 -0.15472291 -0.05786015 0.28580806
000190 23 fe b4 3d ee 9a bf bd 83 df 33 bf f4 e0 b0 3e
       0.08837535 -0.09355722 -0.70262927 0.34546626
0001a0 c6 7b 02 be 60 70 0b 3c 32 76 b7 bd ed f0 ac 3d
       -0.12742528 0.008510679 -0.08958091 0.084443904
0001b0 c5 8d 88 3d c3 d3 81 3e fc b1 a7 bd 5b ff 92 be
       0.066676654 0.25356874 -0.08188245 -0.28710446
0001c0 06 79 71 3e b9 f2 98 bd 1d e1 bc 3c 75 87 81 bb
       0.23581323 -0.07468171 0.023056561 -0.0039529153
0001d0 8a cb cf bd 02 a9 10 be 18 cf 29 bd 02 b8 b7 3d
       -0.10146244 -0.14126971 -0.041457266 0.089706436
0001e0 89 ce f4 3c 53 f8 17 be 3b 52 ca 3d ce 86 2f 3d
       0.02988364 -0.14840822 0.098789655 0.04285317
0001f0 fc cf fb bd 21 23 6e bd 05 90 8e 3c 6b d2 05 3c
       -0.12295529 -0.05813897 0.017402658 0.008167843
000200 a7 0c ad bd 38 2f 86 bd 71 91 30 3d dd 9d e2 bd
       -0.08449679 -0.06551975 0.043107454 -0.11065266
000210 0c 51 cb 3d df b1 2b 3e 31 db f7 bd cb 94 b2 3d
       0.09927568 0.16767071 -0.12102354 0.08719786
000220 a5 a3 ca bd 80 a9 1b 3d c3 6f 8a 3c ef a0 5c 3d
       -0.09894494 0.038003445 0.016898995 0.053864416
000230 f6 9b 3b bc 97 e6 50 bd df 93 30 3e 27 6a df bb
       -0.011450758 -0.051001158 0.17243908 -0.0068180743
000240 0c 32 d2 bb 79 f1 05 be b3 62 ee bd 85 d2 31 bd
       -0.0064146575 -0.13080396 -0.11639919 -0.043413658
000250 72 4a 6b be 5e d4 e5 3d bf 5d 3f 3d 13 e6 b3 3e
       -0.22977617 0.112221465 0.046720263 0.3513647
000260 ab 20 36 be 3e f6 e9 bb 21 23 3b 3d fc da 63 bc
       -0.177859 -0.00713995 0.0456878 -0.01390719
000270 be 2f 02 be 76 c0 92 3d 3c 58 d0 bc 04 50 bd bc
       -0.12713525 0.07165615 -0.025432698 -0.023109443
000280 09 9b 09 3e 02 31 d1 bd ad a4 cb bd 50 53 83 bd
       0.13438047 -0.102144256 -0.09943519 -0.06412375
000290 c5 d0 2a bd 27 23 b9 3e 98 66 5f be c1 84 8d 3d
       -0.041703004 0.36159632 -0.2181648 0.069100864
0002a0 44 3b 7b 3e 37 0d 06 be d5 58 18 3c 02 e6 6a 3d
       0.24534327 -0.13090979 0.009298523 0.05734826
0002b0 27 33 84 bc 01 70 39 3d 03 75 b6 bd bd 2a 41 be
       -0.016137673 0.04527283 -0.08909037 -0.1886396
0002c0 54 b1 7b 3d a9 83 b0 3d 04 e0 87 be f9 70 4d 3e
       0.06144841 0.08618862 -0.26538098 0.20062627
0002d0 77 84 db 3c ad 14 93 3c cc 88 bc 3d 73 b3 a5 be
       0.026796563 0.017954195 0.092057794 -0.3236347
0002e0 91 4a a1 bd 0c d4 d2 3d ea a3 fa bd 00 9c 6a bd
       -0.078755505 0.10294351 -0.122382954 -0.05727768
0002f0 3c ec 2d bd c0 13 2d 3d b5 d8 57 3d a7 c7 93 3d
       -0.04246162 0.042255163 0.052696902 0.07215815
000300 07 29 48 be ad 57 1f 3d 03 b1 cd 3c 5e bd a5 bd
       -0.195469 0.038901974 0.02510882 -0.080927595
000310 34 64 d5 3c f5 4c c0 bc 20 71 db 3e 46 2f 24 be
       0.026048757 -0.023474196 0.42859745 -0.16033658
000320 f4 97 e4 3d a2 44 cf 3e 60 89 de be db 5a 10 3e
       0.11161795 0.4048205 -0.43464184 0.14097159
000330 24 0f 17 3c 43 4f 4f 3e b1 01 b7 bc 56 94 5e be
       0.009219918 0.2024508 -0.022339674 -0.21736273
000340 70 fb 12 bd d1 ef 67 bc 71 33 62 be af e7 0f be
       -0.03588432 -0.014156298 -0.22089936 -0.14053224
000350 b7 a3 46 bb 5d 45 e4 bc 13 d2 c5 bd 20 32 ae 3b
       -0.0030309984 -0.027865106 -0.09659209 0.005316034
000360 3d 98 eb bd 3f 51 a1 be 9f 45 40 be cd d1 87 be
       -0.115036465 -0.31507298 -0.18776558 -0.26527253
000370 20 f5 66 be e3 f1 2a be bd 5d 54 3d 6a 84 74 be
       -0.22554445 -0.16693835 0.05184721 -0.23878637
000380 aa 4e 9a bc 1d 36 98 bd d7 bd c2 bd a9 be 34 3d
       -0.018836338 -0.07432196 -0.09508865 0.04412714
000390 66 19 1a be ee b7 fd bc 5d d5 1d bc d1 86 87 bd
       -0.15048751 -0.030971494 -0.009633389 -0.06617511
0003a0 d3 17 89 3d dd 8c b8 bc 4a 24 d2 3d 50 ef 4f bd
       0.06693997 -0.022528106 0.10260828 -0.050765336
0003b0 22 1f bd 3b 3d 9c ea bc 11 96 c3 3d d8 43 33 bd
       0.0057715336 -0.028638953 0.09550107 -0.043765873
0003c0 ba 72 a3 bd 6e 57 24 3e b8 9f c9 bd 27 25 59 3e
       -0.07980867 0.16048977 -0.09844917 0.21205579
0003d0 58 99 c7 be 97 79 12 3e 1d 5a b3 bc cc 50 85 3d
       -0.3898418 0.14304195 -0.021893555 0.065095514
0003e0 c6 ff 46 3e be ca af 3e 50 e8 0a 3e a7 09 a2 3d
       0.19433507 0.34334368 0.13565183 0.07911997
0003f0 2b 99 83 bc 3a a1 88 bb 04 1f 73 bc 56 c3 9a bc
       -0.016064247 -0.0041696103 -0.014838938 -0.018891972

onnx::Conv_96 f4 [27]
000000 ee de ab be 48 48 3a 3f dc cd 13 3f 64 54 a4 bd
       -0.3356852 0.7276654 0.5773599 -0.08023909
000010 6f 28 62 3f cc 88 1f c0 52 37 65 bf fa 23 c8 3e
       0.88342947 -2.4927244 -0.8953754 0.39089948
000020 3c f7 66 bf 40 e7 12 3f 9c b7 8a bf 93 fd a4 3e
       -0.90221 0.5738411 -1.0837283 0.32224712
000030 32 59 a2 3f c2 90 03 3f 87 6a a5 be df 0f 61 bf
       1.268347 0.5139276 -0.32307836 -0.8791484
000040 7a aa 1a 40 3b d2 8e 3e b2 7d 5a 40 21 e0 ef 3e
       2.416655 0.27894768 3.4139218 0.46850684
000050 cf 82 a5 bf 5a d4 5b bf e3 5c 36 3e 42 28 06 3e
       -1.2930545 -0.858709 0.17808871 0.13101295
000060 6c b9 e0 3d 80 1b 95 3f 36 67 9f 3f
       0.109728664 1.1649017 1.2453372
