model/x4_120_160.onnx (onnx, 522324 bytes, 14 tensors)

onnx::Conv_80 f4 [49, 3, 3, 3]
0	0xbb34d431	-0.0027592296
1	0xbade5608	-0.0016962895
2	0x39f9a742	0.00047617598
3	0xbaf8b415	-0.0018974567
4	0xbb284edc	-0.002568177
5	0xba06d997	-0.0005144118
6	0xba3c69c9	-0.0007187394
7	0xbafb8f92	-0.0019192568
8	0x3af5e3d8	0.0018759919
9	0x3a1d8e20	0.0006010253
10	0x3ac94ae0	0.0015357397
11	0x39a1804d	0.00030803905
12	0x3b1d255e	0.0023978571
13	0x3b2b2dac	0.0026119752
14	0xba8a2b36	-0.0010541442
15	0x39aeb4cc	0.0003332257
16	0x3b0f5e15	0.0021876146
17	0xb980f91e	-0.0002459967
18	0x37f8173f	2.9574729e-05
19	0x39632462	0.0002166196
20	0xba9f0ec3	-0.0012135137
21	0x3a3cf351	0.0007207888
22	0x37e0da54	2.6804548e-05
23	0xbadc77db	-0.0016820388
24	0xb9c97083	-0.00038421535
25	0x3b11b538	0.002223326
26	0x3acbdadf	0.00155529
27	0xba847618	-0.0010105995
28	0xbae99f7c	-0.0017824019
29	0x3b95def9	0.0045736996
30	0x3a54311b	0.00080944755
31	0xbb0854b2	-0.0020802435
32	0xbaa4787b	-0.0012548113
33	0xba84e7b3	-0.0010139853
34	0xbab05714	-0.0013453686
35	0x3a873b6a	0.0010317389
36	0xba3c43f1	-0.0007181755
37	0xbb1c83e7	-0.002388233
38	0x3bbcc847	0.0057611796
39	0xbb1e7cd4	-0.002418329
40	0x3ab05748	0.0013453746
41	0x3b084062	0.0020790328
42	0x3b127b87	0.002235146
43	0x3a97dd81	0.0011586399
44	0xbab2daf5	-0.0013645577
45	0xbb45d82d	-0.0030188665
46	0xbb7d4949	-0.0038648418
47	0x3b443594	0.0029939162
48	0xbaee945f	-0.0018202177
49	0x3a21e60d	0.0006175943
50	0xb9f6f6d5	-0.0004710468
51	0x3a5b3d33	0.00083633064
52	0xbac59a84	-0.0015075956
53	0x3af858de	0.0018947383
54	0x3a68bc55	0.00088781613
55	0x3aa36e3e	0.0012468768
56	0x3b2e3a3e	0.0026585008
57	0xba7f01bf	-0.0009727738
58	0xbb1998a9	-0.002343694
59	0x3a5ce5fe	0.00084266055
60	0xbb1c3ff8	-0.002384184
61	0xbb613bba	-0.0034367875
62	0x3a21b227	0.00061682094
63	0xba87a538	-0.0010348922
64	0x3b1a22d7	0.0023519301
65	0x3a76f23d	0.00094202516
66	0xba545bf1	-0.00081008585
67	0xba4f4fb5	-0.00079083006
68	0x3b02570f	0.0019888317
69	0xbb24fd84	-0.002517552
70	0xbb88041e	-0.0041508814
71	0xba6053ac	-0.000855739
72	0x39e14f17	0.0004297427
73	0x3b23ea2d	0.0025011406
74	0x3b37cb47	0.0028044747
75	0xba8e560a	-0.0010859382
76	0x3aac0a99	0.0013125717
77	0x3b10ce84	0.002209575
78	0x3a5b7a87	0.0008372445
79	0xbb16f177	-0.0023032108
80	0x3ab576e2	0.0013844634
81	0xbbaf852a	-0.0053564506
82	0xbb7d0d5a	-0.0038612694
83	0xba1b90c3	-0.0005934352
84	0xb9359198	-0.00017315743
85	0xbba16314	-0.004925141
86	0xba8c5d02	-0.0010708871
87	0xbb202415	-0.002443557
88	0xbba05de7	-0.0048940065
89	0xbae6bb15	-0.0017603362
90	0x3b62310c	0.0034514097
91	0x3b8a3db7	0.0042187828
92	0xba2513cc	-0.00062972005
93	0x3bbe8d5e	0.005815192
94	0x3b747e9d	0.0037306913
95	0x3b26b505	0.0025437486
96	0x3aabe1be	0.0013113541
97	0x3b236b65	0.0024935838
98	0x3b14aa75	0.0022684608
99	0x39d502b2	0.00040628534
100	0x3a4e9187	0.00078799616
101	0x3aee1405	0.0018163925
102	0xba3dac4b	-0.00072354515
103	0xbb0a44ff	-0.0021098254
104	0x3a6b973e	0.00089870754
105	0xbafc7602	-0.0019261243
106	0x3a068231	0.00051310944
107	0xb98ca363	-0.00026824613
108	0xbbd2fc26	-0.00643875
109	0xbbd5d661	-0.0065258
110	0xbb89d719	-0.00420655
111	0xbb2907b2	-0.002579194
112	0x3c2f55ce	0.01070161
113	0xbbaca749	-0.0052689654
114	0x3b63e4f9	0.003477393
115	0x3b2a0c0a	0.0025947117
116	0xbb027526	-0.0019906252
117	0x3bb09602	0.005388976
118	0x3bbe4a08	0.005807165
119	0x3b3af2ad	0.0028525994
120	0xbaf2185d	-0.0018470396
121	0x3c56f2b4	0.013119388
122	0xba592e98	-0.0008284836
123	0xbaef148f	-0.001824038
124	0xba1fff9d	-0.0006103458
125	0xbb00fa5e	-0.001968048
126	0xbb32376c	-0.0027193679
127	0xbac78772	-0.0015222861
128	0xbb1a677d	-0.002356022
129	0xbb6201eb	-0.0034486006
130	0x3c01886b	0.00790606
131	0xbbb96395	-0.005657623
132	0xb904e4ec	-0.00012673781
133	0x3865302d	5.464272e-05
134	0xbb3bd360	-0.0028659925
135	0x3a3a3e7a	0.00071046466
136	0xb8da5104	-0.000104101404
137	0xbac7912b	-0.0015225759
138	0xb928e2b2	-0.00016106179
139	0x3aed1d76	0.0018090445
140	0x3ab24437	0.0013600652
141	0xba592838	-0.0008283886
142	0x3b56da68	0.003278399
143	0x3b694dc6	0.0035599335
144	0xba79f033	-0.00095343887
145	0x3adfe4bd	0.0017081719
146	0x3ab7e7e5	0.0014030902
147	0x3a686e7e	0.0008866562
148	0xbb005f01	-0.0019587877
149	0xb9f42aa4	-0.00046571076
150	0x3b070bda	0.002060643
151	0xb99edd15	-0.00030300827
152	0xbad06b36	-0.0015901092
153	0x39992dcd	0.00029216558
154	0xbad455ad	-0.001619985
155	0xb8644230	-5.4421078e-05
156	0xba4e1fbb	-0.00078630046
157	0x3a5c9f52	0.00084160746
158	0xba8e9672	-0.0010878576
159	0xbaa7eacd	-0.0012811065
160	0xbb380af9	-0.0028082712
161	0xbb1afc8d	-0.0023649067
162	0xba47af89	-0.00076174043
163	0x3ba1d781	0.00493902
164	0x3ba75438	0.005106475
165	0xbb6cecb7	-0.0036151835
166	0x3be788b0	0.007065855
167	0x3b4c48c6	0.0031171306
168	0xba7b2537	-0.00095804356
169	0xbb323b2d	-0.0027195916
170	0xba438cb1	-0.00074596243
171	0xbb2145ca	-0.0024608248
172	0xbb81b255	-0.0039580264
173	0x3b0ef229	0.002181182
174	0xbba15dca	-0.0049245106
175	0xbb7ff53b	-0.003905608
176	0xba6cffdc	-0.00090408116
177	0xba3acbf0	-0.0007125726
178	0xb9fd63bc	-0.00048330228
179	0x3b2c8182	0.002632231
180	0xba7a5cda	-0.0009550579
181	0x3a7c1680	0.000961639
182	0x3b3cca33	0.0028807044
183	0xbb469005	-0.0030298245
184	0xba95b368	-0.0011421265
185	0x3a5563ea	0.00081401935
186	0xba675af2	-0.00088255026
187	0x3b4ebe53	0.0031546548
188	0xbac7a7d0	-0.0015232507
189	0x3ab46fde	0.0013766249
190	0x3af7bac1	0.0018900261
191	0x3ae4496c	0.0017416901
192	0x3ab7f3f1	0.0014034492
193	0x3ab584fd	0.0013848838
194	0x3a0a090d	0.0005265631
195	0x3a3a17c7	0.000709888
196	0x3a86edc3	0.0010294247
197	0x389a4d54	7.357696e-05
198	0xba1f8529	-0.0006085211
199	0x385fbcb3	5.3343083e-05
200	0x3a028079	0.00049782504
201	0x3a433b2c	0.0007447477
202	0x381ff468	3.8136175e-05
203	0xba25d207	-0.0006325547
204	0xb9c63243	-0.0003780295
205	0x396249bb	0.00021580506
206	0xba1d7969	-0.0006007166
207	0x39595ff1	0.00020730474
208	0xbaa48a5d	-0.0012553443
209	0xb956b1fd	-0.00020474936
210	0xba746566	-0.0009322971
211	0xbad56bd9	-0.0016282751
212	0xba4595a4	-0.0007537252
213	0xba6ff3fd	-0.00091534836
214	0xbaa60265	-0.0012665509
215	0xba61d1cc	-0.0008614331
216	0xbb53a467	-0.0032294036
217	0xb9d87756	-0.00041287643
218	0x398cdb14	0.00026866107
219	0xbb6ad675	-0.0035833393
220	0xbb0949d5	-0.0020948548
221	0xb9da36f5	-0.00041621146
222	0xbb30e62c	-0.0026992662
223	0x3a43014f	0.00074388547
224	0xbab86588	-0.0014068345
225	0xbaa07b26	-0.0012243732
226	0x3ac33563	0.001489323
227	0x38835126	6.261682e-05
228	0xb918b76d	-0.00014564181
229	0x3804dfa7	3.1679545e-05
230	0x39cdfb75	0.00039287997
231	0x38cfcb37	9.908381e-05
232	0x3b146e8c	0.00226489
233	0x3a9b5787	0.0011851647
234	0x3989785f	0.0002622036
235	0x3a61b603	0.00086101907
236	0xba21d688	-0.000617363
237	0xba8548ec	-0.0010168827
238	0x3b06e255	0.0020581682
239	0x3abcf7c3	0.00144171
240	0x3a8faf3d	0.0010962259
241	0x3b192742	0.0023369347
242	0x39ec4872	0.00045067404
243	0x3b9c6ef0	0.004773967
244	0x3bd9b6ba	0.006644097
245	0x3b22e87f	0.0024857817
246	0x3b62bbfb	0.0034596908
247	0x3b544ea0	0.0032395497
248	0x3b484aca	0.0030562156
249	0x3b6da222	0.0036259969
250	0x3ab48e24	0.0013775271
251	0x3b302994	0.0026880251
252	0xbba55f12	-0.0050467337
253	0xbb677ff6	-0.0035324073
254	0xbb802b82	-0.0039114365
255	0xbb23dcde	-0.0025003473

onnx::Conv_81 f4 [49]
0	0x3fa28f6f	1.2700022
1	0xbe9fc1e2	-0.31202608
2	0xbf086652	-0.5328113
3	0x3df7c98e	0.120989904
4	0x3f9e5009	1.2368175
5	0x3efa2ed2	0.48863846
6	0x403368ea	2.8032784
7	0xbe49231a	-0.19642296
8	0x3d61926c	0.05507128
9	0x3eaad70d	0.33367196
10	0x3eca3283	0.39491662
11	0x3e2fb798	0.17159879
12	0x402dcef9	2.7157576
13	0x403a5daa	2.9119668
14	0xbe9b3dae	-0.30320495
15	0x3e8b0f1c	0.27159965
16	0x3e9d446b	0.3071626
17	0x3d092a3e	0.03348755
18	0x3f8b792f	1.0896357
19	0x3e7a9a8e	0.2447302
20	0x3eb63d02	0.3559342
21	0x3f965b7e	1.1746671
22	0x3f2622ec	0.64897037
23	0x3f968693	1.1759819
24	0x3ef4942a	0.4776929
25	0x3f9c566f	1.2213877
26	0x3f6b3b8b	0.9188773
27	0x403bfc36	2.9372687
28	0xbe9d42cc	-0.30715024
29	0xbfe01b0e	-1.7508256
30	0xbe4847b5	-0.19558604
31	0x3fadd08e	1.3579271
32	0x3fb00d50	1.3754063
33	0x405cbf39	3.4491713
34	0x3d85f950	0.06541693
35	0x3f12ad77	0.57295936
36	0x4036270c	2.8461332
37	0x40617d52	3.523274
38	0x3dc59b80	0.096488
39	0xbf4223de	-0.7583598
40	0x3fa3136c	1.2740302
41	0xbe02023c	-0.12696165
42	0x3ef17292	0.47157723
43	0x3f1b99e6	0.60781705
44	0x3f0d8ea3	0.5529577
45	0x401c1eea	2.4393868
46	0x40491fb1	3.1425593
47	0x3f9b2292	1.2119925
48	0x3ecb989d	0.39764872

onnx::Conv_83 f4 [49, 49, 3, 3]
0	0x3c70d184	0.01469839
1	0xbc52ee16	-0.012874147
2	0xbd8677ff	-0.06565856
3	0xbcc6abe6	-0.02425189
4	0x3c512ad5	0.01276656
5	0x3c068db4	0.008212496
6	0xbc86d960	-0.016461074
7	0xbbff0c08	-0.0077834167
8	0x3ce094f7	0.027414782
9	0xbd32b751	-0.043631855
10	0x3d11c465	0.035587687
11	0x3dadd3df	0.08487677
12	0x3c9d41b0	0.019196361
13	0x3de82efe	0.11337088
14	0x3cd8b686	0.026454221
15	0x3d9e2e03	0.0772362
16	0x3cf1e855	0.02952973
17	0x3c2e2658	0.010629259
18	0xbd8f21ee	-0.069888934
19	0xbe25381b	-0.16134684
20	0xbc806a86	-0.015675794
21	0xbd06f32a	-0.032946743
22	0xbd86581e	-0.06559776
23	0xbe413fbe	-0.18871972
24	0xbcf8af47	-0.030357016
25	0x3e164bdd	0.14677377
26	0xbc982567	-0.018572522
27	0xbdd6034d	-0.10449848
28	0xbde19d24	-0.110163
29	0xbe0dc10c	-0.13843173
30	0xbdb34a25	-0.08754376
31	0xbdf54462	-0.119759336
32	0xbd9df3b8	-0.07712501
33	0xbdb25061	-0.08706737
34	0xbda103d3	-0.078620575
35	0xbddb9caa	-0.10723241
36	0x3bae51b7	0.0053197998
37	0x3dbc14ae	0.09183632
38	0x3c9d9c70	0.019239634
39	0x3da8d1cf	0.08243143
40	0x3e60c572	0.2195032
41	0xbb72820b	-0.0037003781
42	0x3e2606cb	0.16213529
43	0x3d4a6b81	0.04941893
44	0x3c34308f	0.010997905
45	0xbd2802f4	-0.04101844
46	0x3a153b6c	0.00056927535
47	0xbd828971	-0.06373871
48	0xbd6eb235	-0.05827542
49	0xbd20950d	-0.039204646
50	0xbd710d9a	-0.058850862
51	0xbd952621	-0.07282663
52	0xbca94732	-0.020663831
53	0xbc7b9126	-0.01535443
54	0xbde5fd9f	-0.11230015
55	0xbdd2f7c0	-0.10301161
56	0xbd19a47e	-0.037510388
57	0xbdb0baea	-0.08629401
58	0xbc84a5b0	-0.016192287
59	0xbdec7c76	-0.115471765
60	0xbcd8fc4a	-0.026487488
61	0xbdafd322	-0.08585192
62	0xbe1ffee5	-0.15624578
63	0xbd1ef65b	-0.03880916
64	0xbc57cffe	-0.013172148
65	0xbc5e895f	-0.0135825565
66	0x3b59c1f1	0.003322717
67	0xbc9713a4	-0.018441983
68	0xbbb12854	-0.005406419
69	0xbd8688bc	-0.06569049
70	0xbcda734d	-0.026666308
71	0xbb7fcbee	-0.0039031464
72	0xbd90546d	-0.07047353
73	0x3dcfa751	0.10139335
74	0x3d173ee8	0.036925226
75	0x3d1a199d	0.037622083
76	0x3d3b30c6	0.04570081
77	0xbc7e761f	-0.015531092
78	0x3a43af03	0.00074647384
79	0xbc39308c	-0.011303078
80	0xbd0d4290	-0.034487307
81	0x3d99a57c	0.07502267
82	0x3db7db57	0.08977383
83	0x3e20e6c0	0.15713024
84	0x3e1a8f06	0.15093622
85	0x3e2018f9	0.15634526
86	0x3e0cc43c	0.13746732
87	0x3dbe1ea9	0.09283192
88	0x3e4cdcee	0.20006153
89	0x3e34dbaf	0.17661928
90	0xbcb74648	-0.02237238
91	0xbc1e47f1	-0.009660707
92	0xbcb20e57	-0.021735353
93	0xbc977401	-0.018487932
94	0xbd01d13a	-0.031693675
95	0x3ba5cf45	0.005060109
96	0xbcdefe3a	-0.027220834
97	0xbc3d1ed7	-0.011542997
98	0xbd0d152b	-0.034444015
99	0xbdd91d3f	-0.106012814
100	0xbde2d452	-0.11075653
101	0xbdb0961a	-0.086223796
102	0xbe5d1b1f	-0.21592377
103	0xbcfea1d0	-0.031083018
104	0x3d8e9753	0.069624566
105	0x3c893793	0.016750133
106	0x3d23bbe9	0.039974127
107	0x3daf24e9	0.08551962
108	0xbc90d3d4	-0.017679133
109	0x3cad7202	0.021172527
110	0x3cc75dfa	0.024336804
111	0xbd93676b	-0.0719746
112	0x3d451ef3	0.04812522
113	0x3cb3c420	0.021944106
114	0x3cf5ae26	0.029990267
115	0xbdd63a73	-0.10460367
116	0x3c55ad87	0.01304186
117	0x3abc04b6	0.0014344666
118	0x3cfe9d84	0.031080969
119	0x3dc1d40c	0.09464273
120	0xbcd6064c	-0.02612605
121	0x3d816c00	0.063194275
122	0xbc0ad934	-0.008474637
123	0x3dbc13b3	0.09183445
124	0x3d5c651f	0.053807374
125	0xbb1a7331	-0.0023567195
126	0xbc50ec4f	-0.012751653
127	0xbd530625	-0.05151953
128	0xbd98e93b	-0.0746636
129	0xbd9dcbc0	-0.07704878
130	0xbdae95b2	-0.08524646
131	0xbd77a5cb	-0.060460847
132	0x3cb80d78	0.02246736
133	0xbe128c32	-0.14311293
134	0xbd74100d	-0.05958562
135	0x3d882535	0.06647722
136	0x3bf0bef4	0.007346982
137	0x3d5412a0	0.051775575
138	0x3e2efde9	0.17089047
139	0x3d8d53ad	0.069007255
140	0xbc07f04c	-0.008297037
141	0x3d0e906b	0.034805696
142	0x3d59f2c4	0.053210035
143	0xbd589bc8	-0.05288294
144	0xbdc5ec81	-0.0966425
145	0xbda0eb05	-0.078573264
146	0xbdc55749	-0.09635789
147	0xbddcbd34	-0.10778275
148	0xbdb06c87	-0.0861445
149	0xbd3e15c8	-0.04640749
150	0xbe20643c	-0.15663236
151	0xbd8e133c	-0.069372624
152	0xbd106c94	-0.0352598
153	0xbc75eb9e	-0.015009789
154	0x3b4ca161	0.003122412
155	0x3ccdd4ba	0.02512585
156	0xbd0b2bdd	-0.03397738
157	0x3db2bd08	0.08727461
158	0x3d537e4c	0.051634118
159	0x3d1d3104	0.038376823
160	0x3cb587a1	0.0221594
161	0x3ccdd990	0.025128156
162	0x3d089c41	0.03335214
163	0x3d63fc67	0.05566063
164	0x3d0ca850	0.034340203
165	0x3d6f31f9	0.058397267
166	0x3d9cc1b1	0.07654131
167	0xbcb391e1	-0.021920146
168	0x3d6f01c8	0.058351308
169	0x3b1e05b3	0.0024112284
170	0xbcfc5db1	-0.030806394
171	0xbd1e4175	-0.038636643
172	0xbc628143	-0.013824764
173	0xbde0f250	-0.109837174
174	0x3d58cd19	0.05292997
175	0x3c2b4240	0.010452807
176	0xbcec8b89	-0.02887513
177	0x3c3e40a7	0.011612094
178	0x3c828b7f	0.015935658
179	0x3c8d658e	0.01726034
180	0xbe15d07f	-0.14630316
181	0xbda7d772	-0.0819539
182	0xbda04c19	-0.078270145
183	0xbd396619	-0.045263384
184	0xbdbfb094	-0.093598515
185	0xbe3aa329	-0.18226303
186	0xbce89652	-0.02839199
187	0xbdfe1d34	-0.12407914
188	0xbe1760fe	-0.14783093
189	0xbd65edca	-0.056134976
190	0xbd752423	-0.059848916
191	0xbda1cc8b	-0.079003416
192	0xbd0b39e0	-0.03399074
193	0xbbfef65d	-0.0077808336
194	0xbd08452e	-0.0332691
195	0x3aded51c	0.0017000767
196	0xbd5cf9f8	-0.053949326
197	0xbd59d832	-0.053184696
198	0x3d03471e	0.032050245
199	0x3dc2d099	0.09512443
200	0x3df4dff5	0.11956779
201	0x3e12bac6	0.14329061
202	0x3d0eaa25	0.03483023
203	0x3dd3675d	0.10322449
204	0x3d9a3d0f	0.07531177
205	0x3d051b1f	0.032496568
206	0x3cb65ed6	0.022262018
207	0x3c24b3b9	0.010052615
208	0x3e00cd6e	0.12578365
209	0xbd87aeef	-0.06625163
210	0x3b6311b0	0.0034647994
211	0xbd14001f	-0.036132928
212	0xbc482937	-0.012216858
213	0x3d063362	0.032763846
214	0xbe27deae	-0.1639354
215	0x3d1368ed	0.035988737
216	0xbd0f4a26	-0.034982823
217	0xbc184a2e	-0.00929503
218	0x3dadafb5	0.08480779
219	0xbd845261	-0.06461025
220	0x3c7d1cbe	0.015448747
221	0xbd4e8b0a	-0.050425567
222	0x3c975851	0.01847473
223	0xbd88c19d	-0.06677554
224	0xbce5bbf4	-0.028043725
225	0x3d77b8bb	0.060478907
226	0x3d85fef9	0.06542773
227	0x3d64e0cd	0.05587845
228	0x3d3207ce	0.043464474
229	0x3d52394a	0.051324166
230	0x3c01331f	0.007885723
231	0x3cac3791	0.02102259
232	0xbdcbbd16	-0.09948175
233	0x3c0d1487	0.008610851
234	0xbd84d74b	-0.064863764
235	0xbd252ea5	-0.040327687
236	0xbc40bc5f	-0.011763661
237	0xbcd21f81	-0.025649788
238	0xbd40d358	-0.047076553
239	0xbd054a04	-0.03254129
240	0x3c3c6218	0.011497997
241	0xbd6b382e	-0.057426624
242	0xbd5221a2	-0.051301606
243	0xbd9b0ae9	-0.0757044
244	0x3a2e2fda	0.00066447037
245	0xbb0b0821	-0.0021214562
246	0x3cd659aa	0.026165802
247	0xbdae91ce	-0.08523904
248	0x3dea0cc4	0.11428216
249	0xbd8720ff	-0.065980904
250	0x3d57d950	0.05269748
251	0x3d706e02	0.05869866
252	0xbe193787	-0.14962588
253	0x3cc8e135	0.02452145
254	0x3de91692	0.11381258
255	0x3d8a4033	0.06750526

onnx::Conv_84 f4 [49]
0	0xc01414b9	-2.3137648
1	0x3fbed581	1.4908906
2	0xc075dc02	-3.8415532
3	0x402bcae5	2.6842587
4	0x3fccde91	1.6005422
5	0x4012a44f	2.2912786
6	0x3f4268f4	0.75941396
7	0x3fac45d0	1.3458805
8	0xbc8bda54	-0.01707188
9	0x3dfe6186	0.12420945
10	0x40992798	4.786083
11	0xbeba8f26	-0.3643734
12	0x3fc25fd2	1.5185492
13	0x3f451378	0.7698283
14	0x3f27e29c	0.65580153
15	0x3f6a2c92	0.9147426
16	0x3ff7e9e6	1.9368255
17	0xbdad70fe	-0.08468817
18	0xbf0606c1	-0.52354056
19	0x3e14145f	0.14460896
20	0xbf6c92d9	-0.9241157
21	0x3fded702	1.7409365
22	0xbf11defe	-0.56980884
23	0x409ca3a4	4.8949757
24	0xbefe6d51	-0.49692777
25	0xc011ee4d	-2.2801697
26	0xbf3e6a0e	-0.74380577
27	0x40272bc5	2.6120465
28	0xbe1761fb	-0.1478347
29	0x3ed2c908	0.41169
30	0xbece55d4	-0.40299857
31	0x40a3124a	5.0959826
32	0x3f72901c	0.94751143
33	0x406aa053	3.6660354
34	0x3ea1e8fa	0.3162306
35	0x3f51e35c	0.8198755
36	0x3f99e851	1.2024022
37	0xbfbe5e7e	-1.4872587
38	0x3f7699be	0.9632834
39	0x40675751	3.6147044
40	0xbf5eec2a	-0.8707911
41	0x409ac54d	4.8365846
42	0x3f32aab2	0.6979171
43	0x3ff0ad46	1.8802879
44	0x3da35c9b	0.079766475
45	0xbf4ff39a	-0.8123108
46	0x3e74ab7d	0.23893543
47	0xbfd32814	-1.6496606
48	0xc05748b2	-3.363812

onnx::Conv_86 f4 [49, 49, 3, 3]
0	0xbbca0f86	-0.0061664013
1	0xbc1a4776	-0.009416452
2	0xbd125a65	-0.03573074
3	0xbb4015fb	-0.0029309976
4	0xbcdf8c32	-0.02728853
5	0xbd3c965b	-0.046041828
6	0x3ccb6935	0.02483044
7	0xbb3fe912	-0.0029283208
8	0xbcfb4cd3	-0.030676281
9	0xbbaa1807	-0.0051908526
10	0xba3cfdb7	-0.00072094373
11	0x3c6aa0cb	0.014320563
12	0xbc05db66	-0.008169984
13	0x3b9f532e	0.0048622107
14	0xbd04a35b	-0.03238235
15	0xbc5372fa	-0.0129058305
16	0xbc063daf	-0.008193417
17	0x3c917db4	0.017760135
18	0x3c9c6875	0.019092778
19	0x3cfad14f	0.030617384
20	0x3cbfdd29	0.023420887
21	0x3c1d92ab	0.009617488
22	0x3c8fd10f	0.017555742
23	0x3cb0435a	0.02151649
24	0x3c4f9d48	0.012671776
25	0x3c70dcbc	0.014701065
26	0x3cbf9d10	0.023390323
27	0x3c8f9ca0	0.01753074
28	0x3c92ed9a	0.017935563
29	0xba971f63	-0.001152974
30	0x3b2558a3	0.0025229834
31	0x3d2a3fe8	0.041564852
32	0x3d09c6d8	0.033636898
33	0xbca121b9	-0.0196694
34	0x3c2cff35	0.010558893
35	0x3c947ef1	0.018126937
36	0xbc246acf	-0.010035231
37	0xbc165f7a	-0.009178037
38	0xbc02d71f	-0.007985859
39	0xbc0f1b78	-0.008734576
40	0xbaeb0313	-0.0017929993
41	0xbc27f401	-0.010251046
42	0x3ba99d14	0.005176196
43	0xb91b70ee	-0.00014824021
44	0xbbe5d5c6	-0.007014009
45	0x3a6de071	0.0009074277
46	0xbb1001ef	-0.0021973809
47	0x3be17f30	0.006881617
48	0xbb808c3e	-0.003922968
49	0xbb7d1d52	-0.0038622213
50	0xbbdc91ca	-0.0067312466
51	0x3be8373a	0.0070866616
52	0x3b104623	0.002201446
53	0xbb0890ed	-0.0020838336
54	0xbd069510	-0.032857
55	0xbd6a423d	-0.057192076
56	0xbccefb6c	-0.025266372
57	0xbd50bff1	-0.0509643
58	0xbd9dcb56	-0.07704799
59	0xbd2001ad	-0.0390641
60	0xbc61a540	-0.013772309
61	0xbd41d8dc	-0.047325954
62	0xbd5dbdba	-0.054136015
63	0x3c8f11c3	0.017464524
64	0x3c29b26a	0.010357479
65	0x3c90cd75	0.017676095
66	0x3bb964ee	0.0056577837
67	0x39402ea2	0.00018327919
68	0x3c865949	0.016399996
69	0x3c477f55	0.012176354
70	0x3c55d49a	0.013051176
71	0x3c3a7729	0.011380949
72	0x3cc3ddc7	0.023909463
73	0x3b9b63de	0.0047421297
74	0x3c9754a4	0.018472977
75	0x3c28aa15	0.010294457
76	0xbc23655d	-0.009972897
77	0xb98519cc	-0.00025386957
78	0x3c8f4641	0.017489554
79	0xbad2475e	-0.0016042998
80	0x3bce3231	0.0062926044
81	0x3c07ff62	0.008300634
82	0x3c5dd4a5	0.013539468
83	0x3c487fe1	0.01223752
84	0x3c0651dc	0.008198228
85	0x3cb36ff7	0.021903975
86	0x3cb438e0	0.021999776
87	0xbb8a4756	-0.0042199297
88	0x3c496417	0.01229193
89	0x38ef4acd	0.00011410341
90	0x3c1eff21	0.009704382
91	0xbce855c6	-0.028361212
92	0xbc0aee74	-0.008479703
93	0x3ca6e6d8	0.020373747
94	0xbc7adf30	-0.015312001
95	0xbc980677	-0.01855777
96	0x3aed14b8	0.001808784
97	0x3b9256e8	0.0044659264
98	0x3c19232d	0.0093467655
99	0x3c575e22	0.013145002
100	0xba46c32f	-0.0007582185
101	0x3c41ddb8	0.011832647
102	0xbb49e499	-0.003080642
103	0xbc818f6b	-0.015815457
104	0xba8fd85b	-0.0010974513
105	0x39c29b53	0.0003711829
106	0x3c2a09d3	0.010378319
107	0x3bc892c7	0.006121013
108	0x3bf018ac	0.00732716
109	0x39b97594	0.00035373552
110	0xbc248482	-0.010041358
111	0xbbb34174	-0.005470449
112	0xbce61860	-0.028087795
113	0xbcda26dc	-0.026629858
114	0x3bfcaf5f	0.0077113356
115	0xbc32e305	-0.0109183835
116	0x3b79b81a	0.0038104118
117	0x3bc08d22	0.0058761993
118	0x3bd6334d	0.0065368772
119	0x3c53077b	0.012880201
120	0xbab8aa28	-0.0014088796
121	0xbc2b21b8	-0.010445051
122	0x3c840257	0.016114397
123	0xbcb42c04	-0.021993645
124	0xbc150178	-0.009094588
125	0xbb011933	-0.0019698858
126	0x3c1eedf2	0.009700285
127	0x3bf591e6	0.007494199
128	0x3c29452c	0.010331433
129	0x3c23771d	0.009977129
130	0x3c839fa5	0.016067335
131	0x3c8fcf1d	0.017554814
132	0xb96eaead	-0.0002276252
133	0x3c131d0c	0.008979093
134	0x3c5719bc	0.013128694
135	0xbc0ad97c	-0.008474704
136	0x3b077952	0.0020671678
137	0xbc1af973	-0.009458887
138	0x3c153a05	0.009108071
139	0x3aa9d4a8	0.0012957053
140	0x3c889e06	0.016676914
141	0x3a635cd1	0.00086731935
142	0xbc405c65	-0.011740779
143	0x3c00ba03	0.007856849
144	0x3c463d33	0.012099552
145	0x39da4f55	0.00041639307
146	0x3c115ce9	0.008872249
147	0xba70b726	-0.00091825647
148	0x3b8b4e86	0.004251304
149	0xbc019da7	-0.007911122
150	0x3c789707	0.0151727265
151	0x3bee0a0c	0.0072643813
152	0x3b564f5d	0.0032701113
153	0x3bc77aed	0.006087652
154	0x3c2afd1f	0.010436325
155	0x3c19ce72	0.009387599
156	0x3bc7924a	0.006090437
157	0x3bed36ef	0.0072392146
158	0x3c29a164	0.01035342
159	0x3c51e4b0	0.012810871
160	0x3c267d70	0.010161743
161	0x3c704c6b	0.014666657
162	0x3c4d907a	0.012546653
163	0x3c9f342b	0.019434055
164	0x3c2dbdae	0.010604305
165	0xbb04a146	-0.0020237728
166	0xbc8d9f4d	-0.017287875
167	0x3d28d95d	0.04122292
168	0xbbb63590	-0.0055605844
169	0xbb279487	-0.0025570707
170	0xbacef76d	-0.0015790291
171	0x3d039bff	0.03213119
172	0x3d33ee9d	0.04392873
173	0x3d2832d0	0.041064084
174	0x3d2fec8d	0.0429502
175	0x3d73c764	0.059516326
176	0x3d766047	0.06015041
177	0x3cd43648	0.02590479
178	0x3d5b7044	0.05357386
179	0x3d46d59e	0.048543565
180	0xbc995acd	-0.018720055
181	0xbd30b77f	-0.043143746
182	0xbd03b53f	-0.03215527
183	0xbd013f52	-0.031554528
184	0xbd5ab013	-0.053390574
185	0xbd72c00d	-0.059265185
186	0x3b49b6f2	0.003077921
187	0xbca14c2a	-0.019689638
188	0xbd025f63	-0.03182925
189	0x3ca2da72	0.019879553
190	0x3cade5fa	0.021227825
191	0x3bad57c5	0.005290004
192	0x3c409f57	0.01175674
193	0x3c34e7cd	0.011041594
194	0x3bc883fa	0.0061192485
195	0x3ab6abbe	0.0013936681
196	0x3ad33cc6	0.0016116134
197	0xbacb1dd2	-0.0015496558
198	0x3a4e8df1	0.0007879427
199	0x3ad1fdf9	0.0016021124
200	0x3b3f2e13	0.002917175
201	0xbb22a6a6	-0.0024818568
202	0x3960aaf0	0.00021425984
203	0xbb4ea2a2	-0.0031530042
204	0x3be5cda8	0.0070130415
205	0x3c0cdcef	0.008597597
206	0x3bdf4b73	0.006814414
207	0x39b5f296	0.0003470375
208	0x3c53063e	0.012879906
209	0xbb6ac124	-0.0035820687
210	0x3c2d07df	0.010560959
211	0x3c707956	0.014677366
212	0xbbbeff6e	-0.0058287894
213	0xbb44ad3d	-0.0030010485
214	0xbc4ffa55	-0.012693961
215	0xbd1f1d75	-0.03884645
216	0x3b6c5e74	0.003606704
217	0xbb35d11a	-0.0027743042
218	0x3c06eeaa	0.008235613
219	0x39f67a1a	0.0004701175
220	0xbc381e75	-0.01123773
221	0xbc206d62	-0.009791704
222	0x3c6990af	0.014255687
223	0xbb01676b	-0.001974548
224	0x3c17cb8f	0.009264841
225	0xbc9625e8	-0.018328622
226	0xbd50c3ab	-0.050967854
227	0xbca82c46	-0.020528924
228	0xbc299081	-0.010349394
229	0xbd38a03c	-0.045074686
230	0x3c472494	0.012154717
231	0x3ad3100f	0.0016102808
232	0xbc479c9e	-0.012183337
233	0x3c8e238b	0.017350933
234	0xbb8191d5	-0.003954152
235	0xbba0b88c	-0.004904812
236	0x3c627110	0.0138209015
237	0xbc0ed414	-0.008717556
238	0xbc81a01d	-0.015823418
239	0xbb9021d6	-0.004398565
240	0xbb36b4e6	-0.002787882
241	0xbbe895c5	-0.007097932
242	0x3ac76d0a	0.0015214991
243	0x3be00ca6	0.0068374453
244	0xbcd5692e	-0.02605113
245	0xbab5563a	-0.0013834902
246	0xbbe27039	-0.0069103506
247	0xbcbc3582	-0.022974733
248	0xbd1840c5	-0.037171144
249	0x3c4c122c	0.012455504
250	0xbc95f785	-0.018306503
251	0xbbd9cb9c	-0.0066465866
252	0x3b868abe	0.004105895
253	0xbcd5b24d	-0.026085997
254	0xbc2d891c	-0.010591771
255	0xbd00be0c	-0.031431243

onnx::Conv_87 f4 [49]
0	0x3f39dfe5	0.7260726
1	0x3f35ace6	0.7096695
2	0xbf67843c	-0.9043615
3	0xbf30ea07	-0.691071
4	0xbe90db8f	-0.2829251
5	0x3f8c1d72	1.0946486
6	0x3dfc5024	0.12319973
7	0x3f6619f4	0.8988335
8	0xbebb51f8	-0.36585975
9	0x3f0f0ee1	0.5588208
10	0xbfe885ac	-1.8165793
11	0x404bec1d	3.1862862
12	0x408d0061	4.4062963
13	0x3f5d0754	0.86339307
14	0xbf53f31b	-0.82792825
15	0x3e86c07a	0.26318723
16	0xbe967472	-0.29385716
17	0x3fa8dafc	1.3191829
18	0xbebabe48	-0.36473298
19	0x403a43ae	2.9103808
20	0x3ff04195	1.8770014
21	0x3f73e619	0.95272976
22	0xbefd65c1	-0.49491695
23	0x3f84ca9c	1.0374331
24	0xbf8811d7	-1.0630444
25	0x3f753d9a	0.9579712
26	0xbf73bc5a	-0.95209277
27	0x3ef62583	0.48075494
28	0xc0591062	-3.391625
29	0x3f24366e	0.64145553
30	0xbd35fb18	-0.044428915
31	0x3e87ea2a	0.2654584
32	0xbf8cf4a4	-1.1012158
33	0x3fa0040b	1.2501234
34	0x3f3bf0b9	0.7341419
35	0xbe0a9de0	-0.13536787
36	0x3f3ebb07	0.7450413
37	0x3f0e431a	0.5557114
38	0x3d53c890	0.051704943
39	0x3f8f0aba	1.1175148
40	0x3d0cbfa5	0.034362454
41	0xbebf3273	-0.37343177
42	0x3f27ed2f	0.6559629
43	0x3f5d570e	0.8646096
44	0x3f69bfcf	0.913083
45	0x3ec51297	0.38490745
46	0xbf745fa3	-0.9545843
47	0x3f65bb0e	0.8973855
48	0x3f05e7bb	0.5230672

onnx::Conv_89 f4 [49, 49, 3, 3]
0	0x3cb807ee	0.022464719
1	0x3c6dc629	0.014512577
2	0xbc184fa7	-0.009296334
3	0x3ca93d83	0.020659214
4	0xb911447f	-0.00013853794
5	0x3bbf7242	0.005842478
6	0xbb8f209e	-0.004367902
7	0x3b9129df	0.0044300403
8	0xbd713935	-0.058892448
9	0x3c4eaa43	0.012613836
10	0x3c5ee622	0.013604673
11	0x3c2aeb6d	0.010432106
12	0x3d3275d1	0.04356939
13	0xbdc63bfa	-0.09679408
14	0xbcda7cd4	-0.02667085
15	0xbc6c4de1	-0.014422865
16	0xbd50e45f	-0.05099904
17	0xbc596d5a	-0.0132707
18	0xbd3c0c97	-0.045910444
19	0x3c2ffc5b	0.010741319
20	0x3db60fb5	0.08889715
21	0xbbb6bd12	-0.005576738
22	0xbcdd9099	-0.027046489
23	0xbd164e77	-0.036695924
24	0x3c5ec176	0.013595929
25	0xbb134aa7	-0.0022474916
26	0x3d11a8e4	0.035561457
27	0xbda22a16	-0.079181835
28	0xbcb09b97	-0.021558566
29	0x3dc670bb	0.096894704
30	0xbd087938	-0.03331873
31	0xbda4a94f	-0.080401056
32	0xbc850afd	-0.016240591
33	0x3d0864df	0.033299323
34	0xbd96eda1	-0.07369543
35	0xbc073c73	-0.008254158
36	0x3de89380	0.113562584
37	0x3e0057ab	0.12533443
38	0x3dfdf147	0.123995356
39	0x3d190020	0.037353635
40	0xbd83bde8	-0.06432706
41	0xbce32ec2	-0.027732257
42	0x3e00ac44	0.12565714
43	0x3d287782	0.041129597
44	0xbd82e05d	-0.0639045
45	0xbd623cc1	-0.05523372
46	0xbbd19e4a	-0.0063970434
47	0xbc756434	-0.014977504
48	0x3e2187c7	0.15774451
49	0xbd23b094	-0.03996332
50	0x3b47ac32	0.0030467627
51	0xbd5fb853	-0.054619145
52	0xbcebc1c0	-0.02877891
53	0xbc4e05b1	-0.012574599
54	0xbd84781b	-0.06468221
55	0x3c0befff	0.008541106
56	0x3b04e9d1	0.0020280967
57	0xbbb0dbbc	-0.005397288
58	0xbcff8181	-0.031189682
59	0xbd76ef4d	-0.06028681
60	0x3d0b7327	0.034045365
61	0x3cb78951	0.022404345
62	0x3bd5fa56	0.0065300865
63	0xbdc4075c	-0.09571716
64	0x3d94c0ee	0.07263361
65	0xbc1af00d	-0.009456647
66	0x3c288e46	0.010287827
67	0xbc697414	-0.014248867
68	0x3cb90acd	0.022588158
69	0x3d02b722	0.03191293
70	0xbd2b197a	-0.041772343
71	0xbd6d2d6b	-0.057904642
72	0xbda64c0b	-0.08119973
73	0xbc7be0a6	-0.015373385
74	0xbd8a8591	-0.06763757
75	0xbc520db0	-0.012820646
76	0xbc62f510	-0.013852373
77	0xbd9073ff	-0.070533745
78	0x3a31b5ab	0.0006779085
79	0xbb852922	-0.0040637413
80	0xbcf6eb29	-0.03014143
81	0xbd5101c7	-0.051027086
82	0xbe0a18de	-0.13486049
83	0xbc5f2c62	-0.0136214215
84	0xbd9ee543	-0.07758572
85	0xbe23d435	-0.1599892
86	0xbc985a51	-0.018597754
87	0x3d02dc89	0.0319486
88	0x3ce4cc80	0.027929544
89	0x3ba41c67	0.0050082686
90	0xbcb07e6f	-0.021544663
91	0xbd5297e0	-0.05141437
92	0xbcf91b89	-0.030408638
93	0xbcb8bc70	-0.022550792
94	0x3dbb3a55	0.09141985
95	0xbd2a3017	-0.04154977
96	0xbd05f7af	-0.032706913
97	0x3cde82d1	0.027161987
98	0xbcf520fb	-0.029922953
99	0x3cb71fbb	0.022353997
100	0xbd44c418	-0.048038572
101	0xbc8b98a8	-0.017040566
102	0x3a981402	0.0011602642
103	0xbd758de3	-0.059949767
104	0xbd14809d	-0.036255468
105	0x3c4dca08	0.012560375
106	0x3c6c2bff	0.014414786
107	0xbcc9463a	-0.02456962
108	0x3ccfd8f4	0.025372006
109	0xbbb0d289	-0.0053961915
110	0x3c774ad4	0.015093524
111	0xbac0e965	-0.0014717994
112	0x3d30cced	0.043164182
113	0x3d16eafe	0.0368452
114	0xbc1f8c02	-0.00973797
115	0xbbf7642e	-0.007549784
116	0xbd08d159	-0.033402774
117	0xbd02c33a	-0.031924464
118	0x3cfafab5	0.030637125
119	0x3c7bdb47	0.015372104
120	0xbe068102	-0.1313515
121	0x3da023e4	0.078193456
122	0x3d6f69a1	0.058450345
123	0xbb2090a6	-0.002450028
124	0xbcceff0c	-0.0252681
125	0x3d0a12ab	0.03370921
126	0xbd712fca	-0.058883466
127	0x3c805f9d	0.015670592
128	0x3cd09981	0.025463821
129	0xbc2f92b4	-0.010716129
130	0xbc2dc057	-0.010604939
131	0xbcbf8639	-0.023379432
132	0x3d05c253	0.032656025
133	0x3bc06d33	0.0058723926
134	0xbbcadb78	-0.0061907135
135	0x3d927b90	0.07152474
136	0x3cd92937	0.02650891
137	0x3dbb7f2d	0.09155116
138	0xbc4fb473	-0.0126773
139	0x3d938079	0.072022386
140	0xbc826fe6	-0.015922498
141	0xbd36df7a	-0.044646718
142	0xbd121d9f	-0.03567278
143	0xbbaf249e	-0.0053449413
144	0xbcc9ac0e	-0.024618175
145	0xbb8c14e6	-0.004274952
146	0x3c3145eb	0.010819892
147	0xbc7ad7e1	-0.015310259
148	0x3c955749	0.018230097
149	0x3d880906	0.06642346
150	0xbc694829	-0.014238396
151	0xbb5553f1	-0.0032551254
152	0xbc6488d0	-0.013948634
153	0xbd003b00	-0.031306267
154	0xbcd48b89	-0.025945442
155	0x3cbce1f9	0.02305697
156	0x3c033c78	0.008010022
157	0xbaceb472	-0.001577033
158	0xbcf8765d	-0.030329878
159	0xbd768fd0	-0.060195744
160	0x3c7592b8	0.014988594
161	0xbd5d9a9d	-0.05410253
162	0x3d1b2c22	0.037883885
163	0x3cef18ef	0.029186694
164	0x3b99f9c9	0.004698966
165	0x3d352d58	0.044232696
166	0xbc52d5ef	-0.012868389
167	0x3db9de1f	0.09075569
168	0x3919f94d	0.00014684089
169	0x3c950e0e	0.018195178
170	0xbc9fc2b8	-0.019502029
171	0x3bbe4d0c	0.0058075245
172	0xbde924a0	-0.11383939
173	0x3d40a836	0.04703542
174	0xbd9713c6	-0.07376818
175	0xbd20d4c3	-0.039265405
176	0x3c2a592d	0.010397238
177	0xbc40a16f	-0.011757239
178	0x3c73a2fd	0.014870402
179	0xbcc6039a	-0.02417164
180	0x3cbc3b34	0.022977449
181	0xbcdb9b86	-0.026807558
182	0x3a96b645	0.0011498412
183	0x3cdb8eca	0.026801486
184	0x3b2bae50	0.0026196428
185	0xbd28d8e3	-0.041222464
186	0x3b50da8a	0.003186854
187	0xbc8239ef	-0.015896766
188	0xbcaf2333	-0.021379089
189	0xbe4f6937	-0.2025498
190	0x3bce2ece	0.0062922006
191	0xbddbfdf5	-0.10741798
192	0xbc8f49ab	-0.017491182
193	0xbcc4ab2b	-0.0240074
194	0x3d16abad	0.036784817
195	0x3e35f451	0.1776898
196	0xbdb347f8	-0.08753961
197	0x3c78a6a7	0.015176452
198	0xbd51d499	-0.05122814
199	0x3d211efc	0.03933619
200	0x3cbdff5e	0.023193058
201	0x3c971020	0.018440306
202	0x3d40b192	0.047044344
203	0xbcbfbdf4	-0.023406006
204	0x3c10997c	0.008825656
205	0x3d1e04d3	0.03857882
206	0xbc95884c	-0.018253468
207	0xbb818fbc	-0.003953902
208	0x3d20f712	0.039298125
209	0x3ca3ab52	0.019979153
210	0xbd3c10cc	-0.045914456
211	0xbd9aecbe	-0.07564686
212	0x3d136565	0.03598537
213	0xbdc91232	-0.098179236
214	0xbddc11a5	-0.10745553
215	0xbd088a6c	-0.033335134
216	0xbb5b9587	-0.0033505873
217	0x3d12f3db	0.03587709
218	0xbd63d0fb	-0.05561922
219	0x3b4156c6	0.0029501184
220	0x3cf1e65e	0.029528793
221	0xbd81b4c1	-0.06333304
222	0xbd0ac4bc	-0.033879027
223	0x3c112ac1	0.008860291
224	0x3ce8002f	0.0283204
225	0x3a9070ca	0.0011019942
226	0xbd35c768	-0.04437962
227	0xbc214358	-0.009842716
228	0x3d17e530	0.037083805
229	0xbd6fd753	-0.05855496
230	0xbd65f30d	-0.056139994
231	0x3d63c5b6	0.055608474
232	0xbd5ebf07	-0.054381397
233	0xbd2a0db4	-0.041516975
234	0x3cfacfc4	0.030616648
235	0xbd77a326	-0.060458325
236	0x3d241b84	0.040065303
237	0x3bb8dd8f	0.005641646
238	0x3d3beb94	0.04587896
239	0x3e02cf6d	0.12774439
240	0xbc61fd1f	-0.013793259
241	0xbc49a9a2	-0.01230851
242	0x3c4bc1c6	0.012436336
243	0xbbe00c94	-0.006837437
244	0x3cec8cb7	0.028875692
245	0x3c02e5f8	0.007989399
246	0xbc2962fe	-0.010338543
247	0x3da4fba6	0.08055811
248	0x3bce527f	0.0062964554
249	0x3b241092	0.002503429
250	0xbc4cbfbd	-0.012496886
251	0x3bf6cf68	0.007532049
252	0xbda912a0	-0.082555056
253	0x3e0282ef	0.1274526
254	0x3d1de7fe	0.038551323
255	0xbc009365	-0.007847642

onnx::Conv_90 f4 [49]
0	0x3f427432	0.7595855
1	0x3e40f3ee	0.18843052
2	0x3eab24c2	0.3342648
3	0x3e3ac3dc	0.18238777
4	0x3fa166a0	1.2609444
5	0xbf683980	-0.9071274
6	0xc01538e7	-2.331598
7	0xbf93ec7e	-1.1556547
8	0xbf140504	-0.57820153
9	0xbf746d3a	-0.95479167
10	0x3fda08af	1.70339
11	0x400ad788	2.169405
12	0xbf0d3243	-0.5515482
13	0xbf95afcd	-1.1694275
14	0x3fc4a94e	1.5364168
15	0x3f5c3c02	0.86029065
16	0xbf87b00c	-1.06006
17	0x40324e62	2.786034
18	0x3d3ab825	0.04558577
19	0xbf96cd64	-1.178143
20	0x3fafbc67	1.3729371
21	0xbfb32344	-1.3995137
22	0xbec145b4	-0.37748492
23	0x3f2b89bc	0.6700704
24	0xbcfb01ac	-0.030640446
25	0x3ff29c38	1.8953924
26	0x3d0f65ec	0.03500931
27	0xbefbd68e	-0.4918713
28	0xbd99fc62	-0.07518841
29	0x3fea1c73	1.8289932
30	0x3cf23470	0.02956602
31	0x3f069115	0.5256513
32	0x3fcea9e5	1.6145598
33	0x3fa2b167	1.2710389
34	0xc028be74	-2.6366243
35	0xbf29b03f	-0.66284555
36	0xbd36d2ce	-0.044634633
37	0xbebfebc0	-0.3748455
38	0x3dfb81d8	0.12280625
39	0x3ef2d9ca	0.47431785
40	0x3fc8f579	1.5699912
41	0xbf7d3314	-0.98906064
42	0x3fff80da	1.9961197
43	0xbe4df7e0	-0.20114088
44	0x3f6ce672	0.9253913
45	0xc0056988	-2.084566
46	0xbfe54c05	-1.7913824
47	0x3ed514a1	0.416173
48	0x4001d476	2.0285926

onnx::Conv_92 f4 [49, 49, 3, 3]
0	0x3b47dfb0	0.0030498318
1	0x3c1ddd2c	0.009635251
2	0xbbf3e774	-0.007443363
3	0x3c59df4e	0.013297869
4	0xbc5cf5e3	-0.013486358
5	0x3b4b15d9	0.0030988364
6	0x3b01a080	0.0019779503
7	0x3cdbc643	0.026827937
8	0x3b196db1	0.0023411328
9	0xbc5c2a74	-0.013437856
10	0xbd2331ea	-0.039842524
11	0x3c07de7e	0.008292792
12	0x3b18dde0	0.0023325607
13	0xbbac4125	-0.0052567893
14	0x3b41ca0c	0.0029569892
15	0x3c23c33d	0.009995279
16	0xbc17aa0f	-0.009256854
17	0x3c552ab0	0.013010666
18	0xbcbd749a	-0.023126889
19	0xbcd54bdf	-0.026037155
20	0xbc5b4128	-0.013382234
21	0xbc92a40b	-0.017900487
22	0xbc0792f3	-0.0082747815
23	0xbbeaa258	-0.007160466
24	0xbc3b41f9	-0.011429303
25	0xbbb0f58d	-0.0054003657
26	0x3a31582e	0.0006765154
27	0xba2b9313	-0.0006545048
28	0xbb316aa9	-0.002707163
29	0x3bfdbe5a	0.007743639
30	0x3c55f918	0.013059877
31	0xbc99d37a	-0.018777598
32	0xbc505fcd	-0.012718153
33	0xbbad153f	-0.0052820737
34	0x3d3dfde8	0.046384722
35	0xbcbbc866	-0.022922706
36	0x3c42afa2	0.011882694
37	0x3ac22c6b	0.0014814263
38	0x3bb32053	0.0054665
39	0x3bd4559a	0.006479931
40	0xbc827f96	-0.015929978
41	0x3bd7fdd1	0.0065915366
42	0x3ce75160	0.028237045
43	0x3c4b726b	0.012417416
44	0x3cbf505d	0.02335375
45	0xbbb93bcb	-0.00565288
46	0x3c56e57f	0.01311624
47	0x3a85b795	0.0010201806
48	0x3be878b5	0.0070944675
49	0xbd2abc0d	-0.041683245
50	0x3bf4b023	0.007467286
51	0xbacaf816	-0.0015485312
52	0xbb2e63b2	-0.0026609716
53	0xbad31d47	-0.0016106748
54	0xbb485402	-0.003056765
55	0x3b1099ec	0.00220644
56	0xb86534e7	-5.4647124e-05
57	0xbaed6c1c	-0.0018113884
58	0x3c7b38be	0.015333353
59	0x3c3ba512	0.01145293
60	0xbb83bef2	-0.004020565
61	0x3bb34793	0.005471179
62	0x3bd39c23	0.006457822
63	0xbb1dfe74	-0.0024107965
64	0x3c07840b	0.008271228
65	0xbcaa251f	-0.020769654
66	0xbd1b31f8	-0.03788945
67	0xbd53a165	-0.05166759
68	0xbbe8dc85	-0.007106366
69	0x3c990640	0.018679738
70	0xbbe9fe7f	-0.007140934
71	0x3b0c8ec8	0.002144741
72	0x3bf1b12c	0.007375857
73	0xbd9599d0	-0.07304728
74	0x3c012e02	0.007884504
75	0xbc97ea0c	-0.01854422
76	0xbcfa4b18	-0.030553386
77	0xba9eda04	-0.0012119417
78	0x3d25aca1	0.040447835
79	0xbcabf633	-0.02099142
80	0x3b528560	0.0032122955
81	0xbbb87fbc	-0.0056304615
82	0x3cbd2d11	0.023092778
83	0x3a89d910	0.001051696
84	0x3b5cb805	0.003367902
85	0x3c080e3f	0.008304178
86	0xbbd4b3c5	-0.0064911568
87	0xba5fe9b7	-0.0008541601
88	0x3c644af6	0.013933888
89	0xba1449ee	-0.00056567683
90	0x3cf8cdbb	0.030371537
91	0x3ca085af	0.019594995
92	0x3cbaff00	0.022826672
93	0x3ce0079c	0.027347378
94	0x3d331296	0.043718897
95	0x3ca1ea1d	0.019764954
96	0x3cd50ea0	0.02600795
97	0x3be6283c	0.0070238393
98	0x3c80d19f	0.015724955
99	0xbc1e7832	-0.0096722115
100	0xbcc3d8ec	-0.023907147
101	0xbc0958a7	-0.008382953
102	0xbc3c4665	-0.011491393
103	0xbcf7a0d1	-0.03022805
104	0xbcbd7e11	-0.023131402
105	0xbb8cadbd	-0.004293172
106	0xbc5e0c6a	-0.013552764
107	0xbc3f570e	-0.01167847
108	0x3d339d31	0.04385108
109	0x3c4bbbc8	0.012434907
110	0x3b8b642e	0.0042538857
111	0x3c6478bb	0.0139448
112	0x3d206183	0.039155494
113	0x3c9c3281	0.01906705
114	0x3d36e819	0.04465494
115	0x3c8e4f19	0.017371701
116	0x3c98dee7	0.018660976
117	0xbbcfb89d	-0.0063391463
118	0x3b246d84	0.002508969
119	0xbb7c647f	-0.0038512049
120	0xbcadf0b1	-0.021232935
121	0xbcbe34dd	-0.023218567
122	0x3a43d9f7	0.0007471139
123	0xbc45bcfb	-0.012068982
124	0xbb2ba636	-0.0026191599
125	0xbbe3117a	-0.0069295736
126	0x3c834599	0.016024398
127	0x39216d5d	0.00015394897
128	0x3c0b8829	0.00851635
129	0x39cc3aa8	0.00038953614
130	0xbd24bdbb	-0.040220004
131	0xbaa15320	-0.0012308098
132	0xbab80526	-0.001403962
133	0xbc11c70d	-0.008897555
134	0x3bcb6709	0.006207351
135	0x3c03864a	0.0080276225
136	0xbbf43edd	-0.007453783
137	0xbb68bfac	-0.0035514636
138	0xbc37ba2f	-0.011213823
139	0x3d0151c2	0.03157211
140	0xbc1f4a57	-0.009722314
141	0x3a3e6326	0.0007262699
142	0xbb448d2a	-0.0029991367
143	0xbb18ea84	-0.0023333142
144	0x3c2dd2c8	0.010609336
145	0xbccb9759	-0.024852442
146	0x3b916b6f	0.004437856
147	0x3b8032a1	0.0039122854
148	0x3c831760	0.016002357
149	0x3c966fe2	0.018363897
150	0x3c988a1d	0.018620545
151	0x3c4d02a2	0.012512835
152	0x3bdc9763	0.006731914
153	0xbc0c8869	-0.008577445
154	0x3b999bbf	0.004687756
155	0x3c51a55b	0.0127957715
156	0xbbc818dd	-0.0061064796
157	0xbc139eab	-0.009009997
158	0x3c71e790	0.014764681
159	0xbc1c85bc	-0.009553369
160	0xbbac3749	-0.005255614
161	0x3c4dafd0	0.012554124
162	0xba78a3c9	-0.0009484855
163	0xbbc060f0	-0.005870931
164	0xbc2e9434	-0.010655452
165	0x3c14168d	0.00903858
166	0xbca7996c	-0.0204589
167	0x3a66eb5f	0.0008808877
168	0xba611b68	-0.00085871527
169	0xbc29d354	-0.010365326
170	0x3c608e5b	0.013705815
171	0xbc3f8e4b	-0.01169164
172	0xbc2f645f	-0.010705083
173	0xbb153c0a	-0.0022771382
174	0xbc175262	-0.00923595
175	0xbd12d453	-0.03584702
176	0xbb880b86	-0.0041517643
177	0xbb422e2e	-0.0029629576
178	0xbc07ec41	-0.008296073
179	0x3b55533f	0.003255084
180	0x3cbde5f5	0.023180941
181	0x3cbdec65	0.02318401
182	0x3c2403eb	0.0100107
183	0x3b3205ec	0.0027164174
184	0xbca7c02c	-0.020477377
185	0x3c258f54	0.010104973
186	0x3d19adb9	0.03751919
187	0x3c57c997	0.013170621
188	0x3ca1c32b	0.019746384
189	0x3d5d756c	0.05406706
190	0x3c9901b2	0.018677566
191	0x3cfc362d	0.030787552
192	0x3d0ff6bd	0.035147417
193	0xbcbfa3f6	-0.023393612
194	0x3c882e4d	0.01662364
195	0x3c13b203	0.009014609
196	0x3b8aa756	0.004231374
197	0x3ca6745d	0.020319158
198	0xb9e2ab00	-0.00043233484
199	0xbd074f5f	-0.03303468
200	0xbc15eae9	-0.009150245
201	0xbac8dfbb	-0.0015325466
202	0xbc6f7302	-0.014614822
203	0xbbb2fd9f	-0.005462363
204	0xbc1f5dee	-0.009726984
205	0xbb6dd178	-0.0036288183
206	0xbc1571b9	-0.009121352
207	0x3bd1b5b8	0.0063998364
208	0xbcbee012	-0.023300204
209	0xbc03ea51	-0.008051471
210	0xbc2d9f73	-0.010597098
211	0x3c75b3fa	0.014996523
212	0xbc576441	-0.013146461
213	0x3c0a9204	0.008457664
214	0xbc123d93	-0.008925813
215	0xbb93e979	-0.004513916
216	0xbc54c36e	-0.012986047
217	0xbc575fe8	-0.013145424
218	0xbc694948	-0.014238663
219	0xbcbd2236	-0.023087602
220	0xbb1eb232	-0.00242151
221	0xbc598b62	-0.01327786
222	0xbba93416	-0.00516368
223	0xbc4e8b56	-0.012606462
224	0xbb9fe788	-0.0048798956
225	0xbbc05f31	-0.0058707227
226	0x3d137fcc	0.03601055
227	0x3bd9c6e1	0.0066460227
228	0x3c4a76c1	0.012357415
229	0xbcbe0be0	-0.023199022
230	0xbac26881	-0.001483217
231	0xbacb7121	-0.0015521386
232	0xbb291791	-0.00258014
233	0x3c56ec35	0.01311784
234	0x3bcd6fed	0.006269446
235	0xbc780701	-0.015138389
236	0xbbb039b7	-0.005377974
237	0xbbb0a776	-0.0053910566
238	0xbc1f2456	-0.009713253
239	0xbbba7171	-0.005689793
240	0x3c31cc7e	0.010851977
241	0x3c0d2f28	0.0086172
242	0xbc1a0858	-0.009401403
243	0xbca63175	-0.020287255
244	0xbba7c715	-0.005120168
245	0x3ad58849	0.0016291226
246	0x3c8a5618	0.016886756
247	0xbc837a30	-0.016049474
248	0xbbc939e8	-0.006140936
249	0x3aa40b1c	0.0012515518
250	0xb949ab29	-0.00019232616
251	0x3bdb3798	0.006689977
252	0xbca95dac	-0.020674549
253	0xbd19d92f	-0.037560638
254	0xbceb8bd8	-0.028753206
255	0xbd37dd3d	-0.044888724

onnx::Conv_93 f4 [49]
0	0x3f4b733e	0.7947272
1	0x405f89cc	3.4927855
2	0x3e8d2f6e	0.27575248
3	0x3e849064	0.2589141
4	0xbee1233c	-0.43972194
5	0x3e6104c4	0.21974474
6	0xbe92b0f4	-0.2865063
7	0x3f0b3fa0	0.5439396
8	0x3db84560	0.08997607
9	0xbf6a6dce	-0.915738
10	0x3fc31aae	1.5242517
11	0x3f18ea73	0.5973274
12	0xbd09a1fc	-0.033601746
13	0xbf90f954	-1.1326089
14	0xbeb138fa	-0.34613782
15	0xbe5ef8aa	-0.21774545
16	0x3f532fde	0.82494915
17	0x3f34602a	0.70459235
18	0xbe997fdd	-0.29980364
19	0x3f2d11c0	0.6760521
20	0xbe942b96	-0.28939503
21	0xbeb9fc25	-0.36325184
22	0x3ea79963	0.32734212
23	0x3f7b1def	0.9809255
24	0xbd9f9608	-0.07792288
25	0x3f00fba8	0.50383997
26	0xbf9f2bb8	-1.2435217
27	0x3db393f0	0.08768451
28	0x3ec9a09b	0.39380345
29	0xbf0d9712	-0.5530864
30	0x3ed2a76f	0.41143367
31	0x3f65b98f	0.89736265
32	0x3f7fbd88	0.99898577
33	0xbff031ee	-1.8765237
34	0xbf322b00	-0.6959686
35	0x3f39589c	0.7240083
36	0x3f2c1ffa	0.6723629
37	0xbe54a178	-0.2076472
38	0x3f91b970	1.1384716
39	0x3f182179	0.59426075
40	0x3e311f29	0.17297043
41	0x3d2e2360	0.042514205
42	0x3ef53b50	0.47896814
43	0x3e4f44f4	0.20241147
44	0x3ea4f622	0.32219034
45	0xbdc12a08	-0.09431845
46	0xbe5b523e	-0.21418092
47	0x3e75f25a	0.24018231
48	0x3e1151ee	0.1419141

onnx::Conv_95 f4 [48, 49, 3, 3]
0	0xbcd8285c	-0.026386432
1	0xbd74eb06	-0.05979445
2	0xbd8b1b32	-0.067922965
3	0xbd5224b7	-0.051304545
4	0xbddb6415	-0.107124485
5	0xbdc08d1c	-0.094019145
6	0x3b45ec37	0.003020061
7	0xbb826cd0	-0.0039802566
8	0xbd830392	-0.06397165
9	0xbbc42898	-0.0059862845
10	0x3cf54903	0.029942041
11	0xbcf07b4d	-0.02935567
12	0xbc53238f	-0.012886896
13	0xbd2711b5	-0.04078837
14	0xbb762140	-0.003755644
15	0xbd237d1e	-0.039914243
16	0x3c861a1a	0.016369868
17	0xbd0a8e25	-0.033826966
18	0xbc2cc743	-0.010545555
19	0x3da8f248	0.082493365
20	0xbc4368de	-0.011926858
21	0x3ccd8a69	0.025090413
22	0xbc7ef3dc	-0.01556107
23	0x3cf2c197	0.029633326
24	0x3c1d9568	0.009618141
25	0x3d01f1f0	0.03172487
26	0x3cb0f5f8	0.021601662
27	0xbcedec54	-0.029043354
28	0xbd87b395	-0.066260494
29	0xbd3499fb	-0.04409216
30	0xbd047433	-0.03233738
31	0xbe109935	-0.14120944
32	0xbdbdedaf	-0.0927385
33	0x3c95062d	0.018191421
34	0xbd20600e	-0.039154105
35	0x3c151b38	0.009100728
36	0xbc7088af	-0.014681025
37	0x3b83d8d8	0.0040236525
38	0xbc63203c	-0.013862666
39	0xbd227af3	-0.039668035
40	0x3e60b9cc	0.21945876
41	0xbd0fca44	-0.035105005
42	0xbcae8243	-0.021302348
43	0xbd0031a8	-0.031297356
44	0xbcc7e9e0	-0.024403512
45	0x3d8940c0	0.06701803
46	0x3d71970e	0.058981948
47	0x3d44f3b9	0.048083995
48	0x3d024fea	0.031814493
49	0x3d5876e8	0.052847773
50	0x3c95a887	0.018268837
51	0x3c97c4db	0.018526485
52	0xbbde66da	-0.006787163
53	0x3ada4188	0.001665161
54	0xbbd7da1d	-0.0065872804
55	0x3d10ee43	0.035383474
56	0xbce81908	-0.028332248
57	0xbd1ce862	-0.038307555
58	0x3dafaaa3	0.08577468
59	0x3ce6fff4	0.02819822
60	0xbc9c7bd9	-0.019102024
61	0x3d1eb8a1	0.038750295
62	0xbc8101ea	-0.015747983
63	0xbb8f782a	-0.0043783383
64	0xbc639d5f	-0.013892501
65	0x3ae24927	0.0017264233
66	0xbd898838	-0.06715435
67	0xbd01a88c	-0.03165488
68	0x3d1d2041	0.038360838
69	0xbc91fbc3	-0.017820245
70	0x3d559ee9	0.0521535
71	0xbc607940	-0.013700783
72	0xbb49a8f0	-0.003077086
73	0xbc74cda0	-0.014941603
74	0x3cb9e6c2	0.022693042
75	0xbd366e12	-0.044538565
76	0x3db96642	0.09052707
77	0x3c7baeff	0.015361547
78	0xbcdf0d16	-0.02722792
79	0x3cd317a9	0.025768118
80	0xba127763	-0.0005587248
81	0x3cb5071b	0.022098115
82	0x3d0e4e15	0.034742434
83	0xbcb45997	-0.022015376
84	0xbcd8ebef	-0.02647969
85	0x3e173fbf	0.14770411
86	0x3affa385	0.0019503689
87	0xbd3720eb	-0.044709127
88	0xbd094af3	-0.033518743
89	0xbcbb11a6	-0.022835564
90	0x3d821fdb	0.06353732
91	0xbda17b82	-0.07884885
92	0xbcf7cbfc	-0.030248635
93	0xbda71a3f	-0.08159303
94	0x3d00c3ef	0.031436857
95	0xbcb911be	-0.022591468
96	0xbb979f21	-0.004627124
97	0xbcd82e64	-0.026389308
98	0x3c19fa28	0.009398021
99	0xbba9352f	-0.0051638107
100	0xbc6cf2d0	-0.014462188
101	0xbbb80878	-0.005616244
102	0x3db610fc	0.08889958
103	0xbdefdffe	-0.11712645
104	0xbcba144b	-0.022714755
105	0xbafc9c4b	-0.0019272653
106	0xbbf5228a	-0.007480924
107	0xbb5bd21a	-0.0033541978
108	0x3d0ab4e8	0.033863932
109	0xbd46d4ff	-0.048542973
110	0x3d1818b9	0.037132952
111	0x3d041bd6	0.03225311
112	0x3d1fd980	0.039025784
113	0xbd012186	-0.03152611
114	0xbcbc5ae5	-0.02299256
115	0xbcb6d64b	-0.02231898
116	0xbce6a79c	-0.028156094
117	0xbcc06b8d	-0.023488784
118	0x3a8bea5d	0.0010674704
119	0xbcce5640	-0.025187612
120	0x3c5d6da7	0.013514913
121	0x3c132846	0.00898177
122	0xbba63691	-0.005072423
123	0xbc8ee7a8	-0.017444447
124	0xba1f0203	-0.00060656684
125	0xbc9df0ad	-0.019279802
126	0x3d38617f	0.045014855
127	0xbd7d416f	-0.06182998
128	0x3c95abbb	0.018270364
129	0x3d868856	0.06568973
130	0x3e07d75e	0.1326575
131	0x3abad7bc	0.0014254968
132	0x3d06a91c	0.03287612
133	0x3db3da3c	0.08781859
134	0x3c1b518e	0.009479893
135	0x3d109811	0.03530127
136	0xbcfab770	-0.030605048
137	0xbc3543d8	-0.0110635385
138	0xbb91f255	-0.004453937
139	0xbc8a0cc6	-0.016851794
140	0xbcc3105e	-0.023811515
141	0xbb8e715f	-0.004347011
142	0xbd82de31	-0.06390036
143	0xba617097	-0.0008599846
144	0x3d44f3ac	0.048083946
145	0xbd62ad10	-0.055340827
146	0x3b8ccd79	0.004296955
147	0xbe848d82	-0.25889212
148	0xbd78e0a0	-0.060761094
149	0xbb35e265	-0.002775335
150	0x3d657d39	0.056027625
151	0x3c925c6c	0.017866336
152	0x3dd5378f	0.104109876
153	0xbb689a34	-0.0035492303
154	0xbcbd41f8	-0.023102745
155	0xbccf2811	-0.02528766
156	0x3c7c98c5	0.0154172825
157	0xbe17f476	-0.14839348
158	0x3d2e52bd	0.042559374
159	0xbc82cb2f	-0.015966026
160	0xbc0f821c	-0.008759048
161	0x3ca295d8	0.019846842
162	0xbc7454f3	-0.014912832
163	0xbce093cd	-0.027414227
164	0x3d6a812a	0.057252087
165	0xbd0629cf	-0.032754716
166	0xbc9633d1	-0.018335255
167	0x3b8d905c	0.0043201875
168	0xba7f18eb	-0.0009731191
169	0xbc69296d	-0.014231068
170	0x3c81cd79	0.015845047
171	0x3b91f740	0.0044545233
172	0xbcdd2b8b	-0.026998302
173	0x3d02040c	0.03174214
174	0xbd5811db	-0.052751403
175	0xbd56c0b5	-0.052429873
176	0xbd23a3bc	-0.03995107
177	0xbc0daaac	-0.008646648
178	0xbd552d4d	-0.052045155
179	0xbc9b9990	-0.018994123
180	0xbe0017e3	-0.12509112
181	0xbe0952e2	-0.13410524
182	0xbd81e48f	-0.06342422
183	0xbdae1d76	-0.08501713
184	0xba6e80b1	-0.0009098156
185	0xbd93ee5e	-0.07223199
186	0xbd7aa7f1	-0.061195318
187	0xbcf345a9	-0.029696302
188	0xbba72846	-0.0051012365
189	0x3c83e0ad	0.016098345
190	0xbc9b4d2c	-0.018957697
191	0x3ce0eb92	0.027456079
192	0x3d20de13	0.039274286
193	0x3dd191a6	0.10232858
194	0x3d7d03c1	0.061771158
195	0x3d6d3efc	0.057921395
196	0x3bff9b66	0.0078005074
197	0x3cde859d	0.027163321
198	0x3cc1d13f	0.023659347
199	0xbd699ae4	-0.05703248
200	0xbd51123f	-0.05104279
201	0x3ca0dffa	0.01963805
202	0xbdc275eb	-0.09495147
203	0x3d84be7c	0.064816445
204	0x3be7a9cf	0.0070698033
205	0x3d088391	0.033328597
206	0xbd80280c	-0.06257638
207	0xbb008dad	-0.0019615695
208	0xbd590c2d	-0.052990127
209	0x3c9ae9d6	0.01891033
210	0x3c3e53d4	0.011616666
211	0xbdb0b9c0	-0.08629179
212	0xbce932f3	-0.028466677
213	0x3c48057c	0.012208339
214	0xbd43beb5	-0.047789294
215	0xbc209cea	-0.009803036
216	0xbbe54307	-0.0069965157
217	0x3cd66ce4	0.02617497
218	0x3c7f27e5	0.015573476
219	0xbcf23e32	-0.029570673
220	0xbd9fbdb7	-0.07799857
221	0xbd74909d	-0.059708226
222	0x3d9f34a0	0.07773709
223	0x3e7e7fa6	0.24853382
224	0x38560c7d	5.1033207e-05
225	0xbcee9717	-0.02912478
226	0x3a98b2da	0.0011649982
227	0x395b7fbe	0.00020933055
228	0xbd219709	-0.03945068
229	0x3db917fe	0.09037779
230	0x3c00c231	0.007858799
231	0xbd8294ee	-0.06376062
232	0x3db253d4	0.08707395
233	0xbc47a36e	-0.012184961
234	0x3d144d69	0.036206637
235	0x3c63767d	0.01388323
236	0x3d0df8de	0.034661166
237	0x3c26a115	0.010170241
238	0x3b261458	0.0025341716
239	0xbcc7c535	-0.024386028
240	0x3b309089	0.0026941618
241	0xbbb4642f	-0.005505107
242	0x3c645256	0.013935646
243	0xbc811771	-0.015758248
244	0xbc433ef2	-0.011916863
245	0x3c55cd73	0.013049471
246	0x3c19beb7	0.009383849
247	0x3c56acae	0.0131026935
248	0x3da42f10	0.08016789
249	0xbd0ecfb1	-0.03486604
250	0x3d9d7b67	0.07689553
251	0xbc045b2d	-0.008078379
252	0xbcb3622c	-0.021897398
253	0x3c24f645	0.010068481
254	0x3b965eb8	0.004588928
255	0x3e21a350	0.15784955

onnx::Conv_96 f4 [48]
0	0x3ebe2720	0.37139225
1	0x3edf8187	0.4365351
2	0x3e01f268	0.12690127
3	0x3e816de4	0.25279152
4	0x3dad37e4	0.08457926
5	0xbf52185b	-0.82068413
6	0x3f1a3eb4	0.6025193
7	0xbc6bfe9c	-0.014403965
8	0x3f7e1d60	0.9926357
9	0x3eafba67	0.343219
10	0x3b5c4300	0.003360927
11	0xbe3947f8	-0.1809386
12	0x3f0116fd	0.504257
13	0x3f12f262	0.57401097
14	0xbe416360	-0.18885565
15	0x3ed9e81c	0.42559898
16	0xbe64009e	-0.2226586
17	0x4007c820	2.1215897
18	0x3f260e40	0.64865494
19	0x3e20c9fe	0.15702054
20	0x3f271692	0.65268815
21	0x3f859560	1.0436211
22	0x3d275320	0.04085076
23	0x3dac7968	0.08421594
24	0xbf403324	-0.75078034
25	0xbef237d5	-0.4730822
26	0xbe2dcae8	-0.16971934
27	0x3eb3d7d4	0.351256
28	0x3dd08896	0.10182302
29	0x3f184a7d	0.5948866
30	0x3fc98fac	1.574697
31	0xbddeb6d0	-0.108747125
32	0x3f52b6c8	0.8231015
33	0x3ea42ec4	0.3206693
34	0x3f238635	0.6387666
35	0xbed73078	-0.42029166
36	0x3e755ba0	0.23960733
37	0x3fce8395	1.6133906
38	0xbd75f078	-0.060043782
39	0x3f0e323e	0.55545413
40	0x3ef0db9b	0.47042546
41	0x3ebd35d2	0.36955124
42	0x3f5cc7b4	0.8624222
43	0x3e871d43	0.26389512
44	0x3e75176c	0.23934716
45	0x3ef12cf4	0.4710461
46	0x3e78f9b6	0.24314007
47	0x3ec0c796	0.37652272
