model/x4_224_320.onnx (onnx, 522823 bytes, 14 tensors)

feature_extraction.0.conv.weight f4 [49, 3, 3, 3]
000000 45 0c 23 bb 33 55 5b be ac 41 87 bc 0f 8f 58 3c
       -0.002487914 -0.2141922 -0.016510807 0.013217702
000010 07 3b 88 3e 5b df c3 bc 9a b6 0b 3d 67 96 ed bc
       0.26607534 -0.023910215 0.03410969 -0.029002381
000020 ac 32 d6 bc 54 83 92 bc a5 4e bb be 09 5c 4f 3c
       -0.02614721 -0.017884888 -0.3658344 0.01265622
000030 1b 68 68 3d 04 45 63 3e fd 1a c2 3d 6d 3a c5 bd
       0.056739908 0.22194296 0.09477804 -0.096302845
000040 0f 02 5a 3d a6 54 1f 3d a8 70 4d 3c 80 83 2c be
       0.05322462 0.038899086 0.012539066 -0.16847038
000050 4d 67 20 bc be d4 8a bd bb 11 8f 3e 23 fa 86 bd
       -0.009790254 -0.067788586 0.27943215 -0.065906785
000060 37 4d 7f 3d c6 af f4 bc d2 a3 62 bc 5d 4d d8 3c
       0.062329497 -0.029868972 -0.013833003 0.026404077
000070 40 c2 d5 bd 67 3e 27 be 66 38 80 bd 05 29 bf 3e
       -0.10437441 -0.16332398 -0.06260757 0.37335983
000080 bf 04 9d 3e 4b 8f 49 3d 61 e6 99 be 15 ce ef bd
       0.30667683 0.04920892 -0.30058578 -0.11709229
000090 37 d4 1e 3d 8c 18 9a bd 8d ea b1 bc f6 06 8a bb
       0.038776603 -0.07524213 -0.021718288 -0.0042122556
0000a0 d2 40 38 bd 26 2c 2a bd 12 42 5c bd 24 0f 35 3e
       -0.044983692 -0.04154601 -0.053773947 0.17681557
0000b0 4e 13 bd 3c f7 ee 88 bd 1f 71 3f 3e 40 f6 3e 3e
       0.023080494 -0.06686204 0.18695496 0.18648624
0000c0 8c 50 8c 3d bb 30 ab be 26 be 8a be fa fd ba 3b
       0.068513006 -0.33435616 -0.27098197 0.005706546
0000d0 a0 f3 ff 3d ef b3 c2 3d 85 ae 3d 3d 53 75 c7 bb
       0.1249764 0.09506976 0.046309013 -0.006086984
0000e0 23 85 86 3e 24 3a 52 3d 64 6b 7c 3e 33 30 eb 3d
       0.2627345 0.05132498 0.24650341 0.11483803
0000f0 88 43 02 bc 01 59 83 3e 1b 03 61 3e ea 07 87 3d
       -0.007950671 0.25653842 0.21973841 0.06593306
000100 d0 60 48 be 3a 8d 7d bd b0 24 a5 3c 59 4e 73 3d
       -0.19568181 -0.061902262 0.020159096 0.05940089
000110 fb 21 85 3d 46 5c 29 3c 51 18 0a be c1 6c 34 be
       0.06500622 0.010336941 -0.13485838 -0.17619611
000120 c7 ea 2d 3b 72 0c c7 3c e6 c8 3d be bc 58 ce bd
       0.0026537643 0.024297927 -0.18533668 -0.100755185
000130 77 52 01 be 59 35 4c bd 36 e7 58 be 5c d3 ca bb
       -0.12629114 -0.049855564 -0.2118195 -0.006189747
000140 ba 78 18 be 62 27 14 3e 0e de 42 bd 9d 66 00 bd
       -0.14889804 0.14468148 -0.04757505 -0.03134786
000150 23 ac 93 bd 9b 2f 80 3e 71 44 2b 3e e3 af a6 3c
       -0.07210567 0.2503632 0.16725327 0.020347541
000160 d8 39 f0 3d 7f 8a 6b 3e c4 ac 0a be e4 7b 71 be
       0.11729783 0.23002051 -0.13542467 -0.23582417
000170 b0 55 be 3d 2a 25 9c 3c c9 25 45 be e5 39 5d be
       0.09293687 0.01906069 -0.19252695 -0.21604116
000180 b8 52 26 be 17 bf 81 be 0b 1c 7e be 6e 80 80 3d
       -0.16242492 -0.25341102 -0.24815385 0.06274496
000190 8a 39 36 3c ad 69 cb 3d 14 42 0c 3e b8 71 ff 3d
       0.011122117 0.099322654 0.13697082 0.12472862
0001a0 e7 3d f9 3d 34 e3 4b 3e bf df bc bd 62 92 92 3c
       0.1217001 0.1991089 -0.09222364 0.017892066
0001b0 5d cf 6d bd 78 ae ab 3d b3 2c 54 bd 10 fe e0 3d
       -0.058059085 0.08382887 -0.05180044 0.109859586
0001c0 b1 cf a7 bd ee 11 7a bb 68 d8 81 bc 0e af 2e bd
       -0.08193911 -0.003815766 -0.01585026 -0.042647414
0001d0 41 ff ec 3c 0a 9d c5 3d 4a fd cc 3d 96 50 ea bd
       0.028930308 0.096490934 0.100092486 -0.11441152
0001e0 c6 03 27 be d9 1b 05 bd 11 5f a7 3c 21 fd 55 3d
       -0.16310033 -0.03249726 0.020431073 0.052243356
0001f0 6a 21 a9 3d 47 50 bb bd 31 82 65 bd 9c 68 3f 3e
       0.08258326 -0.09146171 -0.056032363 0.18692249
000200 cf fb 1d be 8b bb 12 3d 3d 0e 32 3e 7c cc 17 be
       -0.15428089 0.035823386 0.17388244 -0.14824098
000210 10 12 d2 bb 58 5e 9a bd 2a b4 af 3c 1c 60 60 bd
       -0.0064108446 -0.07537526 0.021448214 -0.054779157
000220 9c 96 b4 be 00 fa b1 3d 49 c8 e8 3d f1 3a 50 be
       -0.35271156 0.08690262 0.11366326 -0.20334984
000230 fa 0f 95 3e d4 bd 67 bd 87 84 3b 3e 63 a9 5c 3c
       0.29113752 -0.05657752 0.18312274 0.013468119
000240 91 d8 0c bd 85 22 fe bd a4 6f 80 3d 1b 21 fe 3c
       -0.03438622 -0.12408928 0.06271294 0.031021645
000250 be a4 2a 3e 11 bc 91 3c ea dd e7 bc 69 c6 0a 3d
       0.16664407 0.017789872 -0.028304059 0.033880625
000260 77 01 e8 bd ae b2 be 3d 26 d8 f9 3e b6 ab 12 be
       -0.113284044 0.09311424 0.4879772 -0.14323315
000270 fb 0d 0b be e2 e0 41 3d 98 a0 96 be b4 c4 c6 3d
       -0.13579552 0.047333606 -0.29419398 0.09705487
000280 3d 0d 6b be 88 a5 c7 3d 87 66 62 3e bd 1b 32 3e
       -0.22954269 0.097483695 0.22109424 0.17393394
000290 50 a9 22 bd 6c 19 35 3e bb 77 68 be 4f 0c 42 3d
       -0.03971225 0.17685479 -0.22701924 0.04737502
0002a0 4c 08 77 be 0e 82 42 bd f6 e8 47 bd 44 3b 01 be
       -0.24124259 -0.04748731 -0.048806153 -0.12620264
0002b0 01 cc 75 be 24 d2 37 3d 29 72 5b bd 1c fa df bd
       -0.24003603 0.04487814 -0.05357567 -0.109363765
0002c0 ee 16 2a bc f5 db 48 3e e3 47 75 3e c5 b4 88 3d
       -0.010381443 0.19615157 0.23953204 0.06675104
0002d0 90 ff b9 bd cd d9 a3 3d 5f 3d 28 bc ef 99 fe bd
       -0.09081948 0.080005266 -0.010268538 -0.12431704
0002e0 bc 81 aa 3e 47 08 06 bd 0a f1 1a 3d 93 98 30 be
       0.33302104 -0.032722738 0.03782753 -0.17245702
0002f0 6d 2c 97 bc c3 04 1b 3e 47 e2 20 be 06 11 38 be
       -0.018453801 0.15138535 -0.15711318 -0.17975244
000300 0b 40 31 be 4a 40 1b be 07 f8 8a bd b5 37 71 3d
       -0.17309587 -0.15161243 -0.06785589 0.058891017
000310 9b 69 06 be e4 ac 8f 3d d8 2e 34 be a8 38 3d be
       -0.13126223 0.07015398 -0.17595994 -0.18478644
000320 1b 9b 10 3e 3b aa 9b bd 97 75 c9 3d 0c 69 0f be
       0.14121668 -0.07600828 0.098368816 -0.14004916
000330 5e 25 4c be f6 e5 b8 bd 2b 3b 6e be 5f 35 d2 3d
       -0.1993613 -0.090282366 -0.23264758 0.10264086
000340 63 9d 6a 3e 40 c7 c3 3d 34 ca 86 3e 5e 6b a7 3d
       0.22911601 0.09559488 0.26326144 0.081747755
000350 d4 1b d9 3d de 3e 37 3e 04 85 20 3e 77 f6 69 3e
       0.10601011 0.17895076 0.15675741 0.22847925
000360 b0 a6 97 3d c0 95 8f be 9c 2c 0e be 77 a3 f6 3d
       0.0740484 -0.28043938 -0.13884205 0.12042897
000370 dc bc b6 3d 99 6d 33 3b 05 c1 22 3e ea 9b dd bc
       0.08922741 0.0027378558 0.15893944 -0.027051885
000380 c6 d9 ec b9 fa ee 85 bd 5f f1 4c be 94 41 09 3e
       -0.00045175682 -0.06539722 -0.20013951 0.13403922
000390 19 c8 2f 3e 0f 85 92 bc 9f 01 fb bd bd 27 ed 3d
       0.17166175 -0.017885713 -0.122561686 0.11579845
0003a0 67 d1 0e bd c2 5d b4 39 cf 60 01 bc 3b ec f5 3e
       -0.03486767 0.0003440213 -0.007896616 0.48031792
0003b0 35 a5 26 3d 57 be aa be 5f e1 3a be c4 81 4f 3e
       0.040684897 -0.33348343 -0.18250035 0.20264345
0003c0 de 98 a0 be c9 2a da 3d 3e 86 89 ba 2a 38 da 3c
       -0.31366628 0.10652692 -0.0010492278 0.02663811
0003d0 fe 41 69 3c b6 00 d1 bd c0 25 bb bd 1e d3 c1 bd
       0.014236925 -0.10205214 -0.091380596 -0.094640955
0003e0 16 67 33 c0 71 fa 02 be de ce 13 bd b2 b3 84 3d
       -2.8031669 -0.12790848 -0.036085956 0.06479587
0003f0 05 6c 05 3d 39 f7 42 3e cb 52 9e bd 5d 1a 90 3d
       0.03257372 0.1903962 -0.07730635 0.070362784

feature_extraction.0.conv.bias f4 [49]
000000 e3 96 09 bd 52 39 d1 bd e0 26 30 3e 2b ba 39 3d
       -0.033591162 -0.10216011 0.1720233 0.04534356
000010 c0 85 f8 bf 80 57 86 3f 84 7d ba 3d 03 3d 46 be
       -1.9415817 1.0495453 0.091059715 -0.19359212
000020 1f 5b 7a 3a b3 0c 10 b9 8f 72 ca 3e 06 3e dc 3d
       0.0009550321 -0.00013737641 0.39540526 0.107540175
000030 36 2b 54 bd a0 c3 d1 bf 4e eb 00 3e fa 5d 62 3a
       -0.05179902 -1.6387825 0.12589762 0.00086352194
000040 ad 9d 2f 3d 06 8d 17 ba 87 de b7 38 d7 8b cf 3f
       0.04287498 -0.0005781207 8.767569e-05 1.6214551
000050 96 9b 30 b9 b2 e3 6d 3a 99 75 6c bd 04 b2 7f 3e
       -0.00016842628 0.0009074762 -0.057729337 0.24970251
000060 d2 cd c4 3b 88 03 ac 3f 50 ca 5b 3f df 8a 8c b9
       0.006005981 1.3438578 0.8585558 -0.00026806348
000070 98 1c 59 3a fe f9 96 b9 72 91 46 3e ec 8b 4d ba
       0.0008282154 -0.00028796488 0.1939142 -0.00078409794
000080 da d5 31 b9 80 32 81 bd 5e 4f e0 3f c7 d3 a4 b9
       -0.00016959701 -0.0630846 1.7524221 -0.00031438304
000090 60 16 ae 3f 6b c0 a6 b8 70 42 23 c0 dc c1 eb 3c
       1.3600578 -7.9513375e-05 -2.55093 0.028778963
0000a0 d9 60 e9 3a 75 99 30 ba be 33 47 37 1d 96 47 be
       0.0017805352 -0.0006736734 1.18733715e-05 -0.19490857
0000b0 b9 0d 53 3f 95 88 ca b8 5b 96 80 3a e6 9c 00 3b
       0.82442814 -9.657551e-05 0.0009810434 0.0019624769
0000c0 24 67 4e 3e
       0.20156533

feature_extraction.1.conv.weight f4 [49, 49, 3, 3]
000000 ea 44 93 bf cb c3 2d c0 fd 2b d3 bf 3a d8 c2 3d
       -1.1505406 -2.7150753 -1.6497799 0.09513898
000010 b3 66 ac bb d5 30 09 3e 35 7d 9c 3c 9b 12 33 bd
       -0.005261266 0.13397534 0.019102672 -0.043718915
000020 b1 db 07 3d 07 b3 83 bf 1a 77 fb bf 3f e3 6f bd
       0.0331685 -1.028901 -1.9645722 -0.05856633
000030 1f e5 2f 3d 1f 13 22 3e 2f 61 b0 3d 5c 9b 00 3d
       0.042943116 0.15827607 0.08612286 0.031398162
000040 3e e6 99 bc f3 b0 29 3d 25 cd 86 bf 46 d2 65 bf
       -0.018786546 0.041428518 -1.0531355 -0.89773977
000050 c3 c3 cb be c5 da 39 bd 54 6e 55 3d 72 32 ec 3c
       -0.39797792 -0.04537465 0.05210717 0.028832648
000060 8b 6c 6e bc 57 b4 c9 bc eb f5 58 3c 7e a5 85 bf
       -0.014552246 -0.024622126 0.013242225 -1.0441129
000070 30 4d 36 c0 1f fd 32 bf 51 1a b7 3d 9c 85 cf 3d
       -2.8484612 -0.6991748 0.08940566 0.10132906
000080 d2 34 89 3d f9 ee ba 3c 3a 5d 7d bc 80 bd 8b bd
       0.06699528 0.02281903 -0.0154641215 -0.06823254
000090 08 f5 e3 be 15 c0 b4 be 5d e3 86 bb f0 c5 4d 3e
       -0.44522882 -0.35302797 -0.0041164593 0.20095038
0000a0 df 52 2b be 27 36 2f bd 90 fd cb bc a8 5b 8a 3d
       -0.16730832 -0.042776253 -0.024901181 0.06755763
0000b0 f7 9f bd bb f0 7f 53 be ff 61 fb 3d 82 aa ab be
       -0.0057868916 -0.20654273 0.12274551 -0.33528525
0000c0 d1 c5 36 3e 46 e6 e9 3d 90 bf f7 3c 5c 14 82 3d
       0.17848898 0.11420874 0.030242711 0.063515395
0000d0 90 26 85 bc 7c 40 4c 3d 1b 87 d2 be 42 a7 d4 be
       -0.01625374 0.049866185 -0.41118702 -0.41533858
0000e0 9e 1e 4b bf 23 b4 5d 3d 07 b1 07 be f7 45 0d 3e
       -0.79343593 0.05412687 -0.13251124 0.1379622
0000f0 6a 71 01 bb 67 46 90 bd ca ad d7 3d b6 64 0c bf
       -0.0019751438 -0.07044678 0.105311945 -0.5484117
000100 61 30 60 c0 8f 97 e0 be d8 e8 3c bd a4 b5 a4 3d
       -3.5029528 -0.4386563 -0.046120495 0.08042458
000110 78 6c b3 3d 38 9e aa 3d 25 ce 06 bd ce af 8d 3c
       0.08760923 0.08330959 -0.03291144 0.017295744
000120 f5 8e 5c bd 69 44 4f c0 ac 03 5f bf b5 8b 02 be
       -0.053847272 -3.2385504 -0.8711498 -0.12748607
000130 c6 ed 71 3e 67 bd 80 3e a2 08 f0 3d 3d ad 33 be
       0.2362586 0.25144503 0.117203966 -0.17546554
000140 1a 7c 30 3e f2 81 ab bf 7e 42 23 c0 83 db 75 be
       0.17234841 -1.3399031 -2.5509334 -0.24009518
000150 4a 40 0e 3e 70 0a 6b 3e 4e f9 ff bc 09 b2 9e 3d
       0.13891712 0.229532 -0.031246807 0.07748801
000160 a0 b4 52 bd 3d c1 9f bc 82 9d 23 bf fc 5e d7 be
       -0.05144179 -0.019501323 -0.6391221 -0.42064655
000170 8a 98 51 bf 1e 90 7a 3d 93 cd 71 3d f2 69 ce 3d
       -0.8187338 0.061172597 0.05903394 0.10078801
000180 79 ff 68 3c 51 6a 8a 3b ba c7 17 bd 7e 79 d4 be
       0.014221066 0.0042240997 -0.03705571 -0.4149894
000190 d6 c4 85 be f7 7b 83 be 86 47 a8 bd f7 55 06 3e
       -0.26126736 -0.25680515 -0.08216767 0.1311873
0001a0 42 00 ac 3d 1e 60 96 3d 7c 99 de 3b d2 b9 77 3c
       0.08398487 0.07342552 0.006793199 0.015119987
0001b0 fe f4 a5 be 1c 16 6b bf fa 6e 81 bf c0 a8 95 bc
       -0.32413477 -0.9183061 -1.0111992 -0.018268943
0001c0 9a 66 4c be 6c d9 1a be 8d d8 9d bd 9b cb 27 3e
       -0.19961014 -0.15122002 -0.077073194 0.16386263
0001d0 fe b2 1a be 3f 3c 8e 3d 99 c4 07 bf c9 93 fd 3e
       -0.15107343 0.06945085 -0.5303436 0.49526814
0001e0 da 19 64 bd 32 29 9c bd 92 5b 3d be 9b ed b7 3c
       -0.055688716 -0.07625045 -0.18491963 0.022452166
0001f0 e9 d9 66 bb e9 48 94 3b ea 94 c8 be bd 9c 83 bf
       -0.00352251 0.004525293 -0.39176112 -1.0282208
000200 4f 1d ab be f1 84 b9 bd a4 8a c3 3b 4f e8 a2 bc
       -0.33420798 -0.0905856 0.005967455 -0.019886164
000210 0f 42 6a 3e 2a d0 07 bc 89 08 d2 3b e6 fc ff bf
       0.22876762 -0.008289376 0.006409709 -1.9999053
000220 3d 7a 28 c0 4a 45 92 bf 3f 73 69 bd dd cf cf 3d
       -2.6324608 -1.1427395 -0.056994673 0.10147069
000230 6f 98 9b 3d 28 f8 b9 3d 87 91 b4 3d ba 38 5f bc
       0.07597434 0.09080535 0.0881682 -0.0136243645
000240 24 f7 d7 3d 1b a7 c2 bf 0a 05 be bd 17 ee da 3e
       0.10545185 -1.5207247 -0.09278305 0.42759773
000250 4c 2e 88 3e ab f8 6a bc 23 f9 19 3d 7a 1f 84 3e
       0.26597822 -0.014341514 0.03759111 0.25805265
000260 72 d3 27 3e 9f a8 bf be 4f d1 28 c0 7e 49 91 bf
       0.16389254 -0.37433335 -2.6377752 -1.1350553
000270 ec ac 1d 3e c4 a0 92 bd 02 73 16 3d ae 01 88 3c
       0.15397996 -0.0715957 0.036730774 0.016602363
000280 45 c7 c1 bd 14 df 7a 3c 8b 24 58 3e 7c b5 93 bf
       -0.09461836 0.015311975 0.2110769 -1.153976
000290 5f c8 02 bf 38 c8 ac 3d 25 3d af bd 3d 5c a0 be
       -0.5108699 0.08436626 -0.08556584 -0.31320372
0002a0 e5 e9 3e 3d d7 54 3c bc 10 ec 5e bd 6c 1e 91 be
       0.046609778 -0.011494837 -0.054424345 -0.28343523
0002b0 17 fa dc bb 7b 1b ac be 3a 6e a7 3e da 27 91 be
       -0.00674368 -0.33614716 0.32701284 -0.28350717
0002c0 a8 67 a0 3b a3 06 aa 3d ba c5 04 3e bd 13 e4 bc
       0.0048951693 0.08302047 0.12966052 -0.027841443
0002d0 c5 94 9b bf f6 d1 6b c0 4b 53 eb be 25 eb 53 bd
       -1.2154776 -3.68469 -0.45961985 -0.051737923
0002e0 c4 b9 ba bb 0b 7e 8c 3c 32 d8 81 3c 6e 38 94 3d
       -0.0056984145 0.017149946 0.01585016 0.072373256
0002f0 45 75 8d 3d aa 58 ee be 27 51 49 c0 0d 50 d4 be
       0.06907133 -0.4655202 -3.1455781 -0.41467324
000300 8c 80 f7 3c 0b fb b0 bc ca 34 79 bb 1a 6c 90 3c
       0.030212663 -0.021604082 -0.003802585 0.017629672
000310 74 9c 21 3d 17 e3 a5 3c 4c d5 78 be a6 c6 a2 be
       0.039455846 0.020249886 -0.24300116 -0.31792182
000320 16 88 1f bf c0 8e a0 bd 8a a1 e8 bc fc 67 b6 bc
       -0.62317026 -0.078397274 -0.02839734 -0.02226638
000330 4e 33 e9 3c b8 1f 65 3c 10 08 85 3c 62 f8 84 be
       0.028466847 0.013984613 0.016239196 -0.2597075
000340 51 49 61 be b4 56 9c bf f0 f0 52 bb e9 42 c2 3b
       -0.22000624 -1.221396 -0.0032187067 0.0059283865
000350 43 2c 1e 3e 28 2d f2 bc a4 07 c7 bd 01 e2 9b bd
       0.15446572 -0.029562548 -0.09718254 -0.07611466
000360 7d dc e9 bf 80 e3 56 c0 c2 ee 04 bf 55 38 17 3f
       -1.8270413 -3.3576355 -0.51926816 0.5907033
000370 13 8d 36 3f 4a 7d 72 bd 0b 08 80 bb 19 48 f7 3d
       0.7130901 -0.059201516 -0.003907209 0.120742984
000380 c2 52 86 be e0 f2 94 3e a5 b9 46 3f 8f 23 0c 3f
       -0.26235014 0.2909155 0.7762702 0.5474176
000390 a7 e1 82 bd 8b e0 5d be e5 70 5e be dc 0c 87 be
       -0.06390696 -0.21667688 -0.21722753 -0.26376998
0003a0 df 2b 50 3d d3 de c9 3d 39 0b bd be 88 9c 15 be
       0.05082309 0.098569535 -0.36922625 -0.14610493
0003b0 be e1 b4 be ae 67 b1 3d b3 88 54 3e 2b cd de bd
       -0.35328478 0.086623535 0.20755272 -0.108789764
0003c0 a0 41 c9 bd 47 8b 08 3e f5 aa 3f 3c 49 30 d0 3e
       -0.0982697 0.1333438 0.011698474 0.4066184
0003d0 67 e3 dc 3e 77 f2 8d 3e d6 5a 7e be f6 64 33 bf
       0.43142244 0.27724048 -0.24839339 -0.7007593
0003e0 19 4d 35 3e 65 3d 00 be 2c c0 3f be d4 94 d4 bd
       0.17705192 -0.1252342 -0.18725652 -0.10379949
0003f0 45 c9 70 bf be 63 80 c0 e4 c6 d6 be ee af 00 3d
       -0.9405711 -4.0121756 -0.41948617 0.03141778

feature_extraction.1.conv.bias f4 [49]
000000 a2 54 f2 bd 1c b8 0b 3f 26 ab cc 3f 06 05 e7 be
       -0.11832549 0.54577804 1.598973 -0.4512102
000010 c1 05 d2 3e ce dd b1 3f c8 5b 39 3c 9b 6d 1a 3e
       0.41020015 1.3895814 0.011313386 0.15080874
000020 53 8e 8b 3d e8 cf 6e be be 0e f4 bc 36 46 b8 bd
       0.068142556 -0.23321497 -0.029792186 -0.08997767
000030 5c 8f c0 3f 82 58 7f 3d 36 6a 33 3f 21 86 94 3d
       1.504375 0.062340267 0.7008394 0.072521456
000040 3b 27 9b 3e f7 89 36 be d3 57 43 3f 97 e8 1f 3e
       0.30303368 -0.17826067 0.76305884 0.1561607
000050 9b 94 f0 bd a7 32 5c 3e 44 47 8b 3e ee d5 bb be
       -0.11747094 0.21503697 0.2720281 -0.36686653
000060 ea ad 20 3f cb dd 94 3e e5 db 89 3f ee 3c c8 3d
       0.6276537 0.29075465 1.0770231 0.097772464
000070 81 3a 8b be 76 19 ce 3d 6b 51 82 3f bb 80 2c 3f
       -0.27193072 0.1006345 1.0181097 0.6738393
000080 f4 11 2e be 4d 82 19 3f d0 ca 13 3f 6e 13 86 be
       -0.16999036 0.5996445 0.5773134 -0.261867
000090 18 36 56 bd 46 5d e8 bd ef 62 c1 bf fb df 95 3f
       -0.05229768 -0.113459155 -1.5108317 1.1708978
0000a0 06 92 b9 3e 15 03 ed be cd 2b 37 be 9b 32 80 3f
       0.3624422 -0.46291414 -0.17887802 1.0015444
0000b0 96 8d 53 3e bc 96 ae 3e 46 b6 34 3e 29 f0 9c 3f
       0.2065948 0.34099376 0.17647657 1.2260791
0000c0 eb f7 97 be
       -0.29681334

feature_extraction.2.conv.weight f4 [49, 49, 3, 3]
000000 91 03 bf 3e 00 07 56 3c 9f ab 9d bd 66 b4 77 3d
       0.37307408 0.013063192 -0.0769875 0.060474776
000010 3b 5a 4d bd a0 45 b6 bd 2b 1f 49 bd 64 92 b4 3e
       -0.05013488 -0.08899999 -0.04910199 0.35267937
000020 75 35 b2 be f1 bb d5 3d f6 a9 db 3d 8e d9 01 bd
       -0.3480641 0.104362376 0.10725777 -0.031701617
000030 66 2f f8 3d 91 2b 03 3e 65 94 09 be f2 40 89 bd
       0.121184155 0.12809588 -0.13435514 -0.067018405
000040 47 8a 5e be b7 76 e7 3d d0 ad 53 be 4c 31 b1 be
       -0.21732436 0.1130194 -0.20671773 -0.34607923
000050 bd 96 a7 bc 27 f5 84 3d b2 58 89 bd 7b 8c 75 bd
       -0.02045762 0.064920716 -0.067063704 -0.059948426
000060 e5 94 23 bc 40 6e 86 3d 85 bf 9c 3d 0f ee 2d 3d
       -0.00998423 0.06563997 0.07653717 0.04246336
000070 a4 f6 85 3d dc 8c 74 be 99 8a ac 3d a1 6c a9 bd
       0.065411836 -0.23881859 0.08424873 -0.082726724
000080 2e fd 8b bd 60 6c be bb 34 ed 56 bc c1 db 35 3d
       -0.068353996 -0.005811259 -0.013118077 0.044399027
000090 1e db a7 be ec ec b7 be c7 bf a3 be 34 5b 40 3d
       -0.3278436 -0.35922945 -0.31982252 0.046961978
0000a0 01 21 54 be b6 5c 03 bd 5f 2f 20 3d c6 e9 9f 3d
       -0.20715715 -0.032070838 0.039107677 0.078082606
0000b0 a1 15 6e bd 4d c9 b2 bf d1 c7 61 3d 4c cd e8 be
       -0.058126096 -1.3967682 0.0551222 -0.4546913
0000c0 bd c7 96 3d d2 ec a0 3e d0 ae f5 3d 6c ac a7 3d
       0.07362316 0.3143068 0.119962335 0.08187184
0000d0 97 00 08 bd 79 27 f2 bd 33 35 13 3d 82 6b ed bd
       -0.033203688 -0.11823935 0.035939407 -0.11592771
0000e0 e4 30 21 bf 43 24 42 3d c2 15 86 be d3 f6 ac be
       -0.62965226 0.047397863 -0.26188475 -0.33782062
0000f0 f3 ff 6c 3d 85 5e 86 bb b3 d1 57 bd d2 1e 9d 3c
       0.05786128 -0.004100623 -0.05269022 0.019179735
000100 8c aa 66 3d b8 47 53 3c a8 b9 8e bd c5 bb fb 3d
       0.05631499 0.012895517 -0.06969005 0.122916736
000110 c1 47 63 bd bf a9 04 3d 09 7b 8b bc a2 8a 10 bd
       -0.05548835 0.032388445 -0.017026441 -0.03528846
000120 6c 9a e2 3d ed 72 5f bb c3 1d 66 bb d8 dc ce 3c
       0.1106461 -0.00340956 -0.0035112954 0.02525179
000130 25 5a 9e be 98 90 ab be 2d 8b 2c bd 7d 41 87 3e
       -0.3092815 -0.33508754 -0.042124916 0.2641715
000140 9e 7e 3a 3e 32 c0 f5 be b3 86 de 3d d7 63 8e 3e
       0.18212363 -0.47998196 0.108655356 0.27810547
000150 da f6 71 bc 4d 40 5a 3d 8d db 09 bd 09 74 1d 3c
       -0.014768327 0.05328398 -0.033656646 0.0096101845
000160 a0 bb 98 3d 73 5d c2 3c b6 84 32 be 44 27 17 bf
       0.07457662 0.0237262 -0.17433438 -0.5904429
000170 85 fc 81 be 73 ee 21 bc 4e f8 2e bb ff ae fc 3d
       -0.2538797 -0.009883511 -0.0026698294 0.12338065
000180 ef df 7f 3d 1d a5 80 bd 1b d0 ae bc 81 18 1e bc
       0.06246942 -0.06281493 -0.021339467 -0.009649397
000190 e7 52 2e bc e5 24 2d bd 9c 76 32 3d 02 98 21 bc
       -0.010639883 -0.042271513 0.043570146 -0.009862902
0001a0 00 58 3c bd 53 4f c8 3b 31 8a 68 3d e8 31 26 3d
       -0.04598236 0.006112972 0.056772415 0.040574938
0001b0 2c 8b 53 be 6b ce 13 be 35 a9 a4 be 5b e4 9a 3c
       -0.20658559 -0.14434211 -0.32160345 0.018907716
0001c0 03 d2 28 3e 15 35 9f 3d 46 53 21 3b 38 23 a1 bd
       0.16486363 0.077737965 0.0024616285 -0.078680456
0001d0 e6 ca f5 38 2d dd 17 3a d8 61 19 3e d7 d0 1f be
       0.00011720303 0.00057931506 0.1497873 -0.1560701
0001e0 c5 29 76 3d 44 7e 8d bc ac e5 93 3c 5d a8 00 bd
       0.06009843 -0.017272122 0.018053852 -0.031410564
0001f0 9c d2 85 bc a6 44 6e bb 00 fd 53 bf 06 75 78 3e
       -0.016335778 -0.0036356836 -0.8280792 0.24263391
000200 34 f6 2f 3e 88 57 66 bd 49 b2 88 be 98 8c a1 3d
       0.17183763 -0.05623582 -0.2669852 0.07888144
000210 db 35 96 be 74 cc ae be f7 b2 15 bd fd 20 f6 3d
       -0.29337963 -0.3414036 -0.036547627 0.12018011
000220 e9 e1 be 3e c6 24 35 3d 32 4f 55 3e 45 d4 80 be
       0.3728173 0.044224523 0.20830992 -0.2516195
000230 ec d7 4e 3e a2 1c a8 bc a2 03 5a be 00 13 9d 3d
       0.20199555 -0.020521466 -0.21290448 0.076696396
000240 95 86 95 3e 57 d2 32 3e 6d 66 9b 3d 70 f0 a5 be
       0.2920424 0.17463051 0.075878955 -0.32410002
000250 5c 19 78 3e 79 94 bb bc 68 4f 2c 3c c5 2f d2 bd
       0.24228424 -0.022897946 0.010516979 -0.102630176
000260 0e bb b7 3c eb 99 17 3e fc 07 4f bf cc 7c 2a be
       0.022428062 0.14804809 -0.8087156 -0.16649169
000270 1c f2 b0 bd 5e 3d bb 3c 6f 7f 7c bd 7a 18 cd 3c
       -0.08639929 0.02285641 -0.061644968 0.025036085
000280 7e a4 87 bd 2b ec a5 3d e9 7f f4 be 1c 24 d4 3e
       -0.06623171 0.08101686 -0.47753838 0.414338
000290 c1 a6 98 3e f2 44 8a bd bd 17 d9 bc f5 cd b4 be
       0.29814723 -0.067514315 -0.026500577 -0.35313383
0002a0 43 2d 41 3e 8c a7 cf bd bf d2 03 bc 88 44 3a 3d
       0.18864922 -0.10139379 -0.008045851 0.045475513
0002b0 35 09 c5 be 3b 7a 31 bd 40 ac b1 3c fc 16 f7 bd
       -0.38483587 -0.04332946 0.02168858 -0.12064931
0002c0 6c b5 97 be 51 51 8e 3c 82 40 10 bd 8b e3 0c bd
       -0.296306 0.017372759 -0.03521777 -0.03439669
0002d0 79 e8 df bd 9e ff 51 bf e5 1c bc bd cf b1 7a bc
       -0.109330125 -0.82030666 -0.09185199 -0.015301182
0002e0 28 79 bb 3d 93 7d 8f 3d 15 9b 09 3d a4 17 96 bd
       0.09153968 0.07006373 0.033595163 -0.07328728
0002f0 da 68 63 bd af d1 42 3e 64 fa e4 3e 7b 13 0c 3e
       -0.055519916 0.190253 0.44722283 0.13679306
000300 52 1a 99 3e 82 26 b7 bc bc c9 9b bf be bf fe 3d
       0.29902893 -0.02235723 -1.217094 0.12438916
000310 59 91 c0 be b0 c8 03 bf 12 f2 ed bc 28 e9 5b 3e
       -0.3761089 -0.514781 -0.029046092 0.21475661
000320 55 56 ac be ab 8f c4 be 9d 0f 9e be d8 df 3b 3e
       -0.33659616 -0.3839086 -0.30871287 0.18347108
000330 3c f7 0d 3c 6c 18 89 3d be b4 d8 bd 77 b4 8c bf
       0.008664902 0.06694111 -0.10581349 -1.0992573
000340 1c 71 1f be 8a 74 e9 3e 2c 7c 0c bf 77 ec c6 3e
       -0.15570492 0.45596725 -0.5487697 0.38852283
000350 d8 da 5d be 6c 32 31 be ce 37 b5 bc 03 b0 38 3e
       -0.21665514 -0.1730439 -0.022121336 0.18035893
000360 d5 c8 a1 3e 68 00 5b bc 1e ff 7e bd 09 36 31 be
       0.31598535 -0.013366796 -0.062255017 -0.17305769
000370 87 0c c4 bd 12 f6 f7 bd 22 a4 39 3d 30 fd 79 be
       -0.09572702 -0.12107481 0.045322545 -0.2441299
000380 59 3c 3c 3d a6 30 b8 bc 6a 04 05 bf c0 e8 17 bf
       0.04595599 -0.022484135 -0.5195986 -0.59339523
000390 94 7c af 3d ad b2 30 bb 16 25 05 3e cb 0a d0 bd
       0.08568683 -0.0026961968 0.13002428 -0.101583086
0003a0 f6 c7 6f bc e5 13 c8 bc 6a e8 e8 bd 48 42 d5 bd
       -0.014635077 -0.024423549 -0.113724545 -0.10413033
0003b0 e2 55 dc 3d 5a 66 2d be 1b c7 07 be 20 88 99 bc
       0.10758568 -0.16933575 -0.13259546 -0.018741667
0003c0 93 af 21 3e 7c fe fc 3d a4 bf ab 3d 5f 5a 20 bd
       0.15789632 0.123532265 0.08386162 -0.039148685
0003d0 45 fd 38 3d 04 0c b9 bd c3 c8 e2 3d 15 05 30 be
       0.04516341 -0.09035495 0.110734485 -0.17189439
0003e0 05 d2 cc 3d 8c 45 82 bd f9 ec 0b 3d 1a 30 d0 3d
       0.100009955 -0.06360921 0.03416154 0.10165425
0003f0 0b 3d f5 bd 40 b9 f0 bd c8 28 76 be 8b 74 d0 3c
       -0.11974534 -0.11754084 -0.24038994 0.025446197

feature_extraction.2.conv.bias f4 [49]
000000 07 e4 86 3e 2c aa 2c 3f 1e a4 86 3e 0f 48 82 3e
       0.26345846 0.6744716 0.26297086 0.254456
000010 45 62 0d bd c3 90 9b 3d eb 7b 4f 3e 8e b2 9e 3f
       -0.034517545 0.075959705 0.20262115 1.239824
000020 71 78 4b bf db 9c 3d bf 9d d3 ae 3e 4e a8 1a bd
       -0.79480654 -0.7406747 0.34145823 -0.037758164
000030 24 9e 20 be 58 76 fc bf e7 41 5b 3f 35 26 63 3d
       -0.15685326 -1.9723616 0.85647434 0.05545636
000040 0b 95 5f 3d f5 bb 6a 3e aa 72 7f 3e cb 91 1a 3e
       0.054585498 0.22923262 0.24946085 0.15094678
000050 f0 a4 30 3e 71 3b 24 3c b7 0f 67 be 45 31 87 be
       0.17250419 0.010023938 -0.22564588 -0.26404777
000060 42 cc 38 be f9 dd 00 3e 6f 9a 01 3f 77 f0 2b bd
       -0.18046668 0.12584676 0.5062627 -0.041977372
000070 8c 04 19 3f 91 f7 7c 3e 64 bf 82 3f 99 0b 83 be
       0.59772563 0.24703814 1.0214658 -0.25594786
000080 d8 da 14 c0 58 9e 93 be ed ec a9 3f 33 d8 17 3f
       -2.3258572 -0.28831744 1.3275429 0.5931427
000090 c8 e4 ef be 72 26 6a be 52 45 19 3c 29 84 cb 3e
       -0.46854234 -0.22866228 0.009354906 0.39749268
0000a0 c2 8a df bd 57 7e 47 3e e8 7e 81 3e c2 5c 1b 3f
       -0.10915138 0.19481789 0.25292134 0.6068841
0000b0 41 8c 83 3e e3 eb af be 2a 6f cb 3d 4b c0 df be
       0.25692943 -0.34359655 0.09933312 -0.43701395
0000c0 18 61 17 be
       -0.14783132

feature_extraction.3.conv.weight f4 [49, 49, 3, 3]
000000 21 dd 0b be 26 5e fb 3d 53 f1 b3 3d 55 b6 09 3e
       -0.13658573 0.12273817 0.08786263 0.1344846
000010 bc 66 fe 3d 3e c2 5a bd e0 03 69 bd c9 4c 63 be
       0.12421939 -0.0534079 -0.05688846 -0.2219726
000020 8d 82 a8 be a6 86 24 be be 7d 24 be d6 f1 71 3e
       -0.32912102 -0.1606699 -0.16063592 0.2362741
000030 b9 f7 22 3e 7c 5a 68 bd 5a c4 12 3e af 57 8d bd
       0.15914811 -0.056726918 0.14332715 -0.0690149
000040 a0 aa 90 3d 51 67 77 3c 60 c1 49 3d 7f 35 3d 3d
       0.07063794 0.015100316 0.049256682 0.046193596
000050 ae 46 1f 3d 38 5e f5 3c bc f2 86 be 4e 05 64 3b
       0.038885765 0.029952154 -0.26357067 0.00347932
000060 33 12 98 bc 43 e5 b4 3d 60 83 4d 3d c8 08 ee 3d
       -0.018563366 0.08832791 0.050174117 0.11622769
000070 64 25 23 3d ab 8a da 3c 09 a4 20 3d 3f dc 2f 3c
       0.03983058 0.02667745 0.039218936 0.010733663
000080 dd b0 f1 3c 8d a1 fd 3d c3 52 09 bc 10 45 32 3d
       0.02950328 0.12384329 -0.008381548 0.043522894
000090 da 21 da 3c cc e3 73 3b 61 b3 7b 3b 62 f5 12 3d
       0.02662747 0.0037214635 0.0038406479 0.035878547
0000a0 88 15 3b 3d 6b 92 a0 3c f8 31 21 3c db 08 eb 3a
       0.04567483 0.019601068 0.009838574 0.0017931716
0000b0 0f b2 4a bb 4b dd c7 3c a5 7c a5 3d 54 bb 39 3c
       -0.0030928885 0.024397513 0.08080415 0.011336166
0000c0 fb 8b a7 3e f0 e6 14 be 6a 35 48 be 42 48 4f 3d
       0.32723984 -0.1454122 -0.19551626 0.05060602
0000d0 92 1a 4f 3d 1e b1 c5 bd 28 58 f7 3d 21 a6 ef bd
       0.05056245 -0.09652923 0.12077361 -0.117016084
0000e0 45 da 3c be 35 e2 38 bf aa f1 6f 3d 3c 03 07 bd
       -0.18442638 -0.72220165 0.05858008 -0.03296207
0000f0 9e 57 c0 bd 7f 08 f3 3d 42 07 40 3d f9 80 74 3c
       -0.09391712 0.11866855 0.04688192 0.014923328
000100 61 72 1a be 00 1b 58 3d ff ab 74 bd 47 38 c8 3d
       -0.15082695 0.052760124 -0.05973434 0.09776359
000110 0f 72 ac bc 4d 05 e5 bd 32 21 c5 be fb 21 f3 bd
       -0.021050481 -0.11182652 -0.3850189 -0.11871716
000120 80 a0 0a bd dc c6 ac bc fd 37 c9 3d 08 fa 0e bd
       -0.03384447 -0.021090917 0.09825132 -0.034906417
000130 78 e6 c2 bd 08 32 28 bc 1e c3 56 3b 4a e7 d0 bc
       -0.09516615 -0.010265835 0.0032770108 -0.025500912
000140 64 f6 12 be e0 8a 16 3d 45 15 cd 3c be 10 05 3d
       -0.14351803 0.036753535 0.025034556 0.03248667
000150 1b 16 1d bd 31 ad 1e be bd 44 5e bb a6 29 44 bd
       -0.03835116 -0.15495755 -0.0033915483 -0.04789128
000160 b6 23 4e 3d d5 4d fe bc c1 c4 bf 3d d6 6f bd bd
       0.050327025 -0.031042973 0.093637 -0.09249847
000170 15 83 46 3e d8 16 df 3d 81 45 2d be 39 72 27 3e
       0.19385941 0.10893029 -0.16921045 0.16352166
000180 ac 6e d6 3c ba c4 11 be 66 6e 50 3d 94 92 6e 3c
       0.02617582 -0.14235201 0.050886534 0.014561314
000190 84 6f 93 3d 4c 9e 2f 3d ac f5 9c 3d b6 3b 7b be
       0.07199004 0.042875573 0.07664046 -0.24534497
0001a0 e1 e4 c7 3c 7e 68 34 3d d2 77 06 bd 3f 33 98 3b
       0.02440113 0.044044964 -0.032829113 0.004644781
0001b0 79 d8 a1 3b 51 f5 42 3d f4 3d 8a bc ad 6c 88 3c
       0.0049391356 0.047597233 -0.016875245 0.016653383
0001c0 4a cd 8f bc 6b 76 d4 bc eb a4 a8 3c 88 f1 6a 3c
       -0.017553944 -0.025935372 0.020586452 0.014339812
0001d0 e4 bb 1a bd 35 21 7e bd ac 44 8e 3d 42 2a ce bd
       -0.037776843 -0.062043387 0.06946692 -0.10066654
0001e0 7e 9e 4e bd 6f 4b 3d 3e c3 98 a3 3d 28 e1 64 3d
       -0.05044412 0.18485807 0.07988121 0.05587879
0001f0 c1 fb 61 bd 72 e5 57 bd b3 ad c0 bd 98 18 24 3d
       -0.05517173 -0.05270905 -0.094081305 0.040062517
000200 d7 e9 93 bb e7 48 bf 3e ad f8 47 3c 31 01 2c 3d
       -0.00451396 0.37360308 0.012205285 0.041993324
000210 b3 d5 ca be 15 11 c6 3e f4 80 ad 3c a2 35 f5 bc
       -0.39616165 0.38684908 0.021179654 -0.0299328
000220 a3 cd 6d bc 04 92 88 3c a8 61 cf bc 86 fe 1c 3c
       -0.01451436 0.016671188 -0.02531512 0.0095821675
000230 93 8d ff 3c 83 bd e3 bc 14 f1 92 bb e5 4b 2c 3d
       0.031195438 -0.027800327 -0.004484305 0.042064566
000240 60 91 7f bd e1 91 16 3d e5 0d 9e 3a 89 ec 65 bc
       -0.0623945 0.036760215 0.0012058584 -0.014033445
000250 4a 33 09 3e dc c5 ce 3c 1e 7c 4e 3d e6 a2 a7 3d
       0.13398471 0.025240831 0.050411336 0.08185367
000260 66 57 dd 3d 83 92 28 3d 20 3c 97 3c c5 64 aa 3d
       0.108076856 0.04115535 0.018461287 0.083200015
000270 ef 6e 88 ba ca 0b 97 3c 2e ce 9f 3e c1 c6 f0 bd
       -0.0010409037 0.018438239 0.3121199 -0.11756659
000280 b3 fd 79 3e be 3d b6 bd 3e c3 4b 3e 58 69 19 3e
       0.24413185 -0.08898495 0.19898698 0.14981592
000290 d6 9c f4 3c 9f c4 e9 3e 0b fe 7a 3b 5c f5 65 3d
       0.029859941 0.45657822 0.0038298394 0.056142196
0002a0 ba 43 2f 3d be 32 3f bd f7 16 10 3d e4 6e 49 3c
       0.0427892 -0.04667925 0.03517815 0.012294505
0002b0 4d 54 4d bd 6d e1 3f 3c f4 0a 00 3e 5e 8c 83 3d
       -0.050129224 0.011711461 0.12504178 0.06423257
0002c0 2c da c7 3d 2f a9 06 bd fd 0a 46 3d 9d f5 1e 3d
       0.0975841 -0.03287619 0.048350323 0.038808454
0002d0 69 c9 56 3e 1a dc 3d bf d1 a0 fc 3a be e4 4e bd
       0.2097527 -0.74163973 0.0019274001 -0.050511114
0002e0 5f c0 01 bf 86 bb e5 3d 5b b5 25 3e e2 5d 2e be
       -0.5068416 0.11217408 0.16182463 -0.17028001
0002f0 a1 a2 9e 3e 1a d3 be bd 20 09 e9 3d 51 6b 41 3e
       0.3098345 -0.09317608 0.113786936 0.18888594
000300 8c d5 c8 3d 29 f0 41 3e 78 38 60 3d 85 fd 21 3e
       0.09806356 0.1893927 0.054741353 0.15819366
000310 77 f6 f8 bc 7b 92 04 be e8 bb ac bd c3 39 c3 bd
       -0.030390961 -0.12946503 -0.08434278 -0.095325015
000320 81 22 54 be a6 95 76 3d cd 91 57 3b 39 fd 4b 3d
       -0.20716287 0.06020131 0.00328933 0.04980204
000330 8f 1e 88 bc 1d 59 52 3c c5 d6 fa bd 0f 54 bb be
       -0.016616134 0.012838629 -0.12247995 -0.3658757
000340 4e 97 10 3d d0 6d 09 3d 36 b4 8e 3d 5a 0f f6 3d
       0.035300545 0.03355199 0.06967966 0.12014647
000350 0e 18 0c be c6 08 8b 3d 30 bc 3d 3e c0 c1 de 3c
       -0.13681051 0.06788783 0.18528819 0.027191997
000360 cf d8 4a bc 83 2e 66 39 04 70 e3 bb 8e 48 21 bb
       -0.012380793 0.00021951836 -0.0069408435 -0.0024609896
000370 52 b2 8b 3d c3 25 ba bb 66 76 36 3d fa bc 03 3d
       0.06821121 -0.005680771 0.044546507 0.032162644
000380 e9 02 7f bd 6f 25 d1 bd 2c fd 03 bf 39 92 d1 be
       -0.062258635 -0.10212218 -0.51558185 -0.40931872
000390 5e 96 72 be 6d 26 21 bd a0 5e 91 ba 32 72 91 be
       -0.23690173 -0.039343286 -0.0011090823 -0.28407437
0003a0 70 5c db 3d 8e fa a9 3d 6d b4 e3 3c 67 00 24 bc
       0.107109904 0.08299743 0.027795995 -0.010009862
0003b0 8b 2f 1b 3d 22 23 ee bd 89 50 09 be 8e 58 a4 3d
       0.037887137 -0.11627795 -0.13409628 0.08024703
0003c0 27 7f 5d 3d e7 76 08 3d 30 04 98 3d 85 5e 19 bd
       0.05407634 0.03331652 0.07422674 -0.037443656
0003d0 00 62 c7 bb b4 42 bb bb 94 67 21 bb 15 b6 2a bf
       -0.0060846806 -0.0057147387 -0.0024628388 -0.66684085
0003e0 bc b1 2e be 69 c1 5b bc fa 77 ca 3b ad 20 b3 3c
       -0.17059988 -0.013412812 0.006178853 0.021866167
0003f0 c3 20 3b 3d 37 b5 b7 bb d7 ce 60 bb f4 bd 78 3c
       0.04568554 -0.0056063193 -0.0034302974 0.015182007

feature_extraction.3.conv.bias f4 [49]
000000 ef 53 af 3f a6 ad f6 3e c5 5c b3 bf 31 ab f3 3e
       1.369749 0.48179358 -1.4012686 0.47591546
000010 2b 0a d5 be a8 eb 7e bf b0 9c f1 bc 1b 8b e8 bc
       -0.4160932 -0.9957833 -0.02949366 -0.028386643
000020 cd 3b 7b 3e 7d 01 88 bd f3 ed 8d 3e 92 a4 40 bb
       0.24534531 -0.06640909 0.27720603 -0.0029394967
000030 7f 03 5b 3e 13 c9 35 bf 95 af 91 3e 28 d9 84 3d
       0.21388052 -0.7100994 0.2845427 0.06486732
000040 5c 07 a3 3e f2 65 8e be 02 b4 5e bf 54 a0 f9 bd
       0.31841552 -0.27812153 -0.8699342 -0.12188783
000050 0f c8 83 3d 3b dd 69 3e 29 b3 74 3d 78 c3 3e bf
       0.064346425 0.22838299 0.059741173 -0.7451701
000060 c8 fc 68 3e 78 c1 8d bd 7a 75 79 be b3 40 0e 3d
       0.22752678 -0.06921667 -0.2436122 0.03472967
000070 9c 05 6b bd cf b2 c6 be 68 1d 08 3e 25 76 04 be
       -0.057378396 -0.38808295 0.13292468 -0.12935694
000080 20 cc 81 bf ad a3 6f bc 24 23 19 bf dc 51 59 be
       -1.0140419 -0.014626426 -0.59819245 -0.21222633
000090 1f a0 be bd d6 b0 9d c0 52 3d 18 be 6a 28 11 c0
       -0.093078844 -4.9278364 -0.14867142 -2.2680917
0000a0 c6 af 9b be 54 11 ac be fe cc c9 3e 25 5e c7 be
       -0.30407542 -0.3360697 0.3941421 -0.38939014
0000b0 25 c1 8e 3f a1 0d 8e bf 25 38 76 3e 49 30 cc 3e
       1.1152693 -1.1097909 0.24044855 0.3988059
0000c0 94 0e d3 3d
       0.10305515

feature_extraction.4.conv.weight f4 [49, 49, 3, 3]
000000 ee fc 68 be 75 f5 18 bf a4 4e e8 3d 40 59 4b be
       -0.22752735 -0.5974954 0.113431245 -0.19858265
000010 03 9c 67 3d 60 b5 22 3e 3b c4 a6 be 45 77 8b bd
       0.05654527 0.15889502 -0.32571587 -0.06809858
000020 03 82 64 bd 0d 5f 30 3e 2a b1 38 bf ff 4f ac 3c
       -0.05578805 0.17223759 -0.7214533 0.021034239
000030 e2 3c 80 3e 47 76 81 c0 8e ac 81 bf bb 85 99 3e
       0.2504645 -4.045688 -1.0130785 0.2998484
000040 29 fa 9f bf 9d 89 d1 be cf fd 02 3c 7b 34 88 be
       -1.2498218 -0.40925303 0.007995083 -0.2660254
000050 1f e2 87 bd 75 a4 14 be 8b a9 97 be 1b a4 a1 bc
       -0.06634926 -0.1451586 -0.2962154 -0.019731572
000060 38 9c 17 be 2c 9f df bc 88 5d 43 bd a5 9e 32 be
       -0.14805686 -0.027297579 -0.04769662 -0.1744333
000070 f1 8a 39 3d 88 58 94 3e 2f b7 92 be ed a5 4e bd
       0.04529852 0.28973794 -0.28655383 -0.050451208
000080 7b 93 59 be 8e fd 63 3e 55 ad 89 3e 5f 90 a1 3e
       -0.21247666 0.22264692 0.26890054 0.3155546
000090 ab b9 6a bf 9e 7e ad 3d 06 c1 61 be ee 21 03 bf
       -0.91689557 0.08471416 -0.22046289 -0.5122365
0000a0 b1 61 22 bd a3 f9 26 bd 7e a0 06 be fc 6a 92 bc
       -0.039643947 -0.040765416 -0.1314716 -0.01787328
0000b0 22 6e 80 3e 6a b1 f5 bc 06 e4 ac 3d 35 ef e1 bd
       0.25084025 -0.029991824 0.084419295 -0.11031953
0000c0 2b e1 b9 be 74 86 16 3e fc 29 82 3d 3b e0 6d 3e
       -0.36304602 0.14699727 0.06355664 0.23230068
0000d0 9b af 71 be 41 51 24 bd 61 e2 e2 3c 3f 73 fe bd
       -0.23602144 -0.040116552 0.027695836 -0.12424325
0000e0 89 b5 8f be 05 f7 cc bd c7 c0 eb bd 46 63 0f be
       -0.28068188 -0.10008053 -0.11511379 -0.14002714
0000f0 a7 f5 18 3e 3c c3 04 be 44 1a b2 3d 4e 7a 94 bf
       0.14937459 -0.12965101 0.08696416 -1.1599824
000100 cb 15 8c 3d e0 c0 fe bd 1d 25 87 be d7 b6 f1 bd
       0.06840094 -0.12439132 -0.26395503 -0.11802452
000110 93 19 57 bb a9 cd dc 3d b8 59 61 3c 7f fd 1d bc
       -0.003282164 0.10781414 0.013754301 -0.009642958
000120 1e 3f 5c 3e 1c 5d 64 be 56 9e d1 be 3a 11 74 be
       0.21508452 -0.22301143 -0.40941113 -0.23834696
000130 cd 73 0b bf a1 48 d4 bd 5b a1 b5 3d 21 a9 86 3d
       -0.5447357 -0.10365415 0.08868667 0.065752275
000140 75 c0 f2 3d d1 23 95 bc 0a 09 6a bd 27 f4 b8 3c
       0.118531145 -0.018205555 -0.057137527 0.022577358
000150 25 7f 36 be 34 37 87 3e 82 34 51 3c 25 1a b6 3d
       -0.1782194 0.26409304 0.0127688665 0.088917054
000160 a3 38 04 3e c6 4f 94 3d 24 9b 28 3e 17 b9 76 3d
       0.1291223 0.07241778 0.16465431 0.06023511
000170 e4 bb 16 3e 4a 46 ba be db 32 be 3e fb a0 a3 bd
       0.14720112 -0.3638175 0.37148175 -0.07989689
000180 b8 73 22 bc 6b 02 26 3e 29 cf 51 3c 84 49 e1 3c
       -0.009915285 0.1621186 0.0128057385 0.027500875
000190 c1 10 c0 bc 82 52 17 be 4a 3a a7 3e 96 fd 4f be
       -0.023445489 -0.14777568 0.3266166 -0.20311579
0001a0 fa e4 4e be c4 2b fe bd 2e e0 28 3e ed 82 86 3d
       -0.20204535 -0.124106914 0.16491768 0.06567941
0001b0 cf d7 d1 3d e4 e7 9a 3e 7c f2 c3 bc 05 dd 20 3e
       0.1024624 0.30255044 -0.023919336 0.15709312
0001c0 86 c0 96 3e 36 6c 49 3d ff 35 21 3c 52 6e 58 bd
       0.2944376 0.049175464 0.009839534 -0.052839585
0001d0 ff 72 93 3d d8 43 59 3d 74 99 a9 be 55 72 e0 3c
       0.07199668 0.053043216 -0.33124888 0.027398268
0001e0 9f 31 e6 3e 75 bd 1a be a4 59 03 be e1 7c ec bd
       0.44959733 -0.15111335 -0.12827164 -0.11547256
0001f0 ea b8 2a 3d e1 4b 9d be 19 26 af 3d 5f a8 e0 3d
       0.041680254 -0.30721954 0.085521884 0.10969614
000200 8c 4a 83 bd 2b c5 6c bd f3 3f 70 3e 5a a9 fc 3d
       -0.06410703 -0.05780522 0.23461895 0.12336989
000210 b9 3a d5 3c e6 04 01 3e a3 02 85 bb 47 65 04 3e
       0.026028978 0.12599525 -0.004059152 0.12929259
000220 40 99 70 3e 4e 02 d9 3d 45 4d a5 bc 83 8d 25 3d
       0.2349596 0.10596143 -0.020178447 0.04041816
000230 aa ca 3a be 0a 21 31 bc ea db 90 3e 2d 5b b2 3c
       -0.18241373 -0.0108111 0.2829278 0.021771992
000240 e6 06 fa bd 48 e7 a5 bd 1c 0d b0 3d fc e3 a3 3c
       -0.12208347 -0.08100754 0.085962504 0.020006172
000250 12 e1 80 3d b8 88 88 bd 80 a5 3e bd 80 fb cc bd
       0.06292929 -0.06666702 -0.04654455 -0.10008907
000260 48 b4 8b bd 61 76 d5 3d 16 d8 7b be b3 e4 61 be
       -0.06821495 0.104229696 -0.24594149 -0.22059898
000270 10 a0 4f be 41 ee 92 3d 3f cb 64 be 2d 69 4b bd
       -0.20275903 0.071743496 -0.22343157 -0.04966085
000280 59 4e a2 3d f3 f1 7b be e8 62 13 3e 76 c9 1a bd
       0.079251 -0.24604015 0.14393198 -0.037789784
000290 49 b1 5e be 2d 66 61 3d f4 bf 23 bc fd 8f dc 3d
       -0.21747316 0.055029083 -0.009994496 0.10769651
0002a0 26 40 2b 3d 52 61 42 3c 5a 34 82 be 82 2c 15 3e
       0.041809224 0.011864023 -0.25430566 0.1456776
0002b0 41 c6 57 be 3f 7c b4 be a1 3a 46 3c a0 b6 a3 3e
       -0.21071722 -0.35251042 0.012098939 0.3197527
0002c0 7d e4 78 bc 09 87 91 3d 8b ff e9 3d 62 95 5f bd
       -0.015191195 0.07105834 0.11425694 -0.054585822
0002d0 fe 15 90 bc dd 28 f5 bd f5 2d a7 be ec 45 58 bd
       -0.017588612 -0.11970685 -0.3265225 -0.052801058
0002e0 d1 04 ef 3d 16 40 03 3e 84 49 83 bc ca 1d 00 be
       0.116708405 0.12817416 -0.016026266 -0.12511364
0002f0 74 b6 33 be 7b b7 00 3d 10 81 3f 3e 40 01 ce 3d
       -0.17550069 0.03142498 0.18701577 0.10058832
000300 13 78 4d 3e ab df b4 3e 50 c1 f9 3d 3c 36 5e 3b
       0.20065336 0.35326895 0.121950746 0.0033906838
000310 e3 0d 0f 3d be 0e 0b 3e 85 27 02 be b9 3a 23 3e
       0.034925353 0.13579842 -0.12710388 0.1594037
000320 12 94 32 3d 36 34 33 be e6 13 9a 3e fc 66 ce bd
       0.043598242 -0.17500386 0.30093306 -0.100782365
000330 4b 66 6d be 8a c9 57 bd 41 f8 a4 3d 30 3f 35 be
       -0.23183553 -0.052682437 0.08055163 -0.17699885
000340 56 24 c0 be ad 53 04 be 90 95 1a 3e 44 6b 29 be
       -0.37527722 -0.12922545 0.15096116 -0.16544825
000350 a3 76 b8 3d 02 6a 1f be 83 a5 b5 3d b5 01 76 be
       0.09007003 -0.15567783 0.088694595 -0.24024089
000360 19 9f 8b 3c d0 fd db 3d e7 c5 01 3d 6f 03 ee 3d
       0.017043637 0.1074177 0.031682875 0.11621749
000370 24 ed 0e 3f 51 5a fd bb f2 e4 9a 3a ce 1f 0c 3e
       0.558306 -0.007731714 0.0011817499 0.13684008
000380 af 98 2f 3c 66 3c 1f 3e a3 3c 7e 3d f1 a8 7a 3b
       0.010717555 0.15550384 0.062069546 0.003824767
000390 1d 93 b4 bd 65 3c 40 be bf d1 8b 3b 33 c4 db bc
       -0.08817122 -0.18773039 0.004266947 -0.026826954
0003a0 5d 52 e7 3d d8 15 ef 3c 51 ac 3f be 58 75 6b be
       0.112950064 0.02918522 -0.18718077 -0.22993982
0003b0 b8 22 0b bd 9e 90 32 3e 1f 86 0d be 5c 76 b2 be
       -0.033968657 0.1743798 -0.13820694 -0.34855926
0003c0 55 a0 4e 3d 55 40 54 3d 08 a8 3b 3f cf 80 8d bc
       0.050445873 0.051819164 0.7330327 -0.017273335
0003d0 57 e5 71 bd b3 b3 07 be f9 ad 59 3d 2a d4 a6 be
       -0.059056606 -0.13252144 0.05314443 -0.32583743
0003e0 9d c8 31 3e 65 b1 68 be e8 c9 c6 bd ab 6d 69 bf
       0.17361684 -0.2272392 -0.09706479 -0.91182965
0003f0 c1 84 65 bd 25 b8 2c be 73 55 24 be a6 e2 ca 3b
       -0.056034807 -0.1686712 -0.16048221 0.0061915694

feature_extraction.4.conv.bias f4 [49]
000000 5a 59 d1 bf 30 0d 50 3d c9 9b 78 be 9e bb 55 bf
       -1.6355393 0.050793827 -0.24278177 -0.83489406
000010 39 de 3a 3f 6e e3 e2 3d 98 46 e1 3b 91 48 01 3f
       0.72995335 0.11078535 0.0068748705 0.5050135
000020 88 af e7 3e 97 f9 54 bf 53 e9 41 bf 89 9a b4 be
       0.45251107 -0.83193344 -0.7574665 -0.3527415
000030 2f 30 9b 3d f5 a6 48 be 84 8d f3 3d 6f 93 48 3e
       0.0757755 -0.19594939 0.11892226 0.19587491
000040 dc 18 16 c0 15 80 9b 3e 17 13 d7 be 42 f6 03 be
       -2.3452673 0.30371156 -0.42006752 -0.12886909
000050 48 5e 59 bf 01 3e c2 be d6 a1 83 bf 2b e3 65 bf
       -0.84909487 -0.3793793 -1.0283763 -0.89799756
000060 82 59 95 bf b4 26 da be 85 5a c0 3d 59 7f 71 bf
       -1.1667941 -0.42607653 0.09392265 -0.9433494
000070 9b 23 3a bf b0 62 2f 3f d6 a7 3d c0 de e8 c9 3d
       -0.7271058 0.6850996 -2.963369 0.09858869
000080 62 ae 1a c0 99 9d 2a bf 7a 11 a2 bd b8 ac c7 bd
       -2.4168935 -0.66646725 -0.0791349 -0.0974974
000090 55 e6 39 bf 2e 31 6b bf 1c 68 f2 be 03 a3 90 3c
       -0.72617084 -0.9187192 -0.47345054 0.017655855
0000a0 35 d9 b8 bd 7e 36 26 be 50 b3 38 bf 36 30 ab be
       -0.09025804 -0.16231725 -0.7214861 -0.3343522
0000b0 18 12 81 bd 38 51 42 bf a5 df ac 3f 74 26 87 bf
       -0.06302279 -0.7590518 1.3505751 -1.055861
0000c0 93 7a 8e 3e
       0.27827892

feature_extraction.5.conv.weight f4 [48, 49, 3, 3]
000000 a3 09 15 bb 21 7d da 3c 1d 15 9b bb 96 3c f9 3b
       -0.002274134 0.026670994 -0.0047327415 0.0076060994
000010 25 89 83 be 7a 37 38 3d 02 b2 76 3c 93 f0 e8 3d
       -0.2569057 0.04497478 0.015057089 0.11374011
000020 77 ba d5 3c 71 f3 0a bb b9 52 0e 3c c1 9c 6a bb
       0.02608989 -0.0021202231 0.008686715 -0.0035799
000030 8c 6c 03 bc 18 a3 04 3b 3a 76 a1 b9 6b a9 3d 3b
       -0.008021485 0.0020238813 -0.000307964 0.0028940092
000040 9f 37 46 bb b1 b3 61 3c a6 6d 7b b9 5d 50 15 ba
       -0.0030245555 0.013775752 -0.00023978073 -0.0005695874
000050 cf f5 52 3b f4 c0 0f 3c 4b 48 e7 bc 95 32 6e 3c
       0.003218997 0.008774031 -0.028232714 0.014538427
000060 b6 bb 42 3c 25 9f 8b bc 8c 8d 3f 3c 3e e6 1b 3b
       0.011885574 -0.01704366 0.011691462 0.0023788358
000070 df 0d 30 bd 44 55 38 bb 93 f2 a0 3d 45 3e ec 3d
       -0.04298198 -0.0028126994 0.07858767 0.115353145
000080 5f d3 fe bb b2 96 ae bb 1f 37 34 bc 49 22 23 ba
       -0.0077766622 -0.005328023 -0.01099947 -0.00062230654
000090 ee cc 9b 3b ae 74 04 bc 6c fb 31 3c e7 32 1b bd
       0.004754654 -0.008084459 0.010863166 -0.03789034
0000a0 a8 80 78 bc 69 15 fd 3a cf 7f 81 3d b4 af 10 3d
       -0.015167393 0.0019308749 0.06323206 0.035323814
0000b0 d6 bc f4 3b 5f e3 de 39 a0 a2 0a 3c ec a7 a2 ba
       0.0074688 0.00042512544 0.008461624 -0.0012409664
0000c0 51 a3 de ba 41 9a 57 bc ab 8b 19 39 70 c7 fb bb
       -0.0016985928 -0.013159336 0.00014643247 -0.007683687
0000d0 ff 37 8e 3b bc 73 32 3c 06 43 57 ba bd 76 90 3b
       0.0043401713 0.010891851 -0.00082115864 0.004408686
0000e0 b9 e4 a5 39 22 77 02 3c 85 09 9c bb ca 27 ef bb
       0.00031641664 0.007962974 -0.004761877 -0.0072984444
0000f0 c7 63 5a 3a ac 92 01 bc c2 f5 e7 3b 02 77 b1 39
       0.0008330908 -0.007908504 0.007078857 0.00033848739
000100 a2 0e 0e 3c b5 1c f3 3b 8c 09 bd bc f9 b5 63 bf
       0.008670481 0.0074191936 -0.023075841 -0.88949543
000110 be 84 d9 bc d8 cb 96 3c eb 37 47 bd e5 45 62 bc
       -0.026552554 0.018407747 -0.048637312 -0.0138106095
000120 da 92 5d bb 69 8e 25 3b 6f bc 94 3a 84 32 3e 3c
       -0.0033809454 0.0025261885 0.0011347661 0.011608724
000130 7c 59 a3 bb b1 54 92 3c 70 53 d4 39 dc 6b 85 3b
       -0.0049850326 0.01786265 0.00040497957 0.0040716957
000140 59 19 c1 3b b1 3e 2b bb 94 2c 88 bb fb cd 3a 3b
       0.0058929143 -0.0026129896 -0.0041557048 0.0028504122
000150 9c 67 11 bc d1 36 76 3c ee 49 3d bb 6c 7d 0f bc
       -0.0088748 0.015027718 -0.0028883177 -0.00875793
000160 d1 52 8d 3c 0c c9 b1 bb 86 87 32 3c 99 12 de bb
       0.017251404 -0.005425578 0.010896569 -0.0067771194
000170 69 f3 a3 3b 1d 53 d8 3c 36 18 18 bd 97 aa d2 bb
       0.005003382 0.026406819 -0.037132464 -0.0064290273
000180 b6 3e 14 3d 59 75 9b bc 6f 8b 19 3c 72 eb 89 ba
       0.03619262 -0.018976854 0.009371622 -0.0010522439
000190 e4 eb eb 3b 11 f9 ff 3a 86 cf 39 bc 98 23 05 3d
       0.007199751 0.0019529184 -0.011340981 0.032504648
0001a0 97 17 79 bc c5 97 13 bb 57 81 87 bd e9 c9 2f 3d
       -0.015203378 -0.0022520882 -0.066164665 0.042917166
0001b0 c1 4a 0f ba 34 63 3c 3b d1 ab f8 3a b5 ef fb bb
       -0.0005466156 0.0028745653 0.0018972104 -0.0076884874
0001c0 eb cb 77 3b e6 af 51 b9 d1 c9 06 bb 3e 6d 80 3b
       0.0037810754 -0.0001999732 -0.002056707 0.0039192727
0001d0 2c 5e 44 3b 78 22 7d 3b 7b b4 38 3e df f0 87 3c
       0.0029963357 0.0038625281 0.18037598 0.016594348
0001e0 50 22 a6 3e 46 86 15 3f 5d 78 a3 3d 84 a4 aa 3d
       0.32448053 0.5840801 0.07981942 0.0833216
0001f0 60 49 f0 3e 79 c8 90 3d c2 7b 35 bb ff 81 9e 3b
       0.4693098 0.07069487 -0.0027692174 0.004837274
000200 cf 39 b0 bb a7 ed 30 3b 65 e4 ed ba a3 3f ae bc
       -0.005377985 0.002699712 -0.0018149732 -0.021270579
000210 29 ba c3 ba 68 25 1a 3c 3b 3b 03 bb bd bd fc ba
       -0.0014932799 0.009408332 -0.0020024318 -0.0019282621
000220 34 03 a6 3b f9 61 14 39 23 25 7b 3c f4 82 a1 bb
       0.0050663 0.00014150878 0.015328678 -0.004928941
000230 93 8e 91 3b a8 01 06 3c a6 c0 89 bb fb 44 23 ba
       0.004442045 0.008179106 -0.0042038737 -0.00062282354
000240 b6 54 50 3c ba a9 a1 3c 80 98 c2 bb 81 aa a0 bb
       0.012715509 0.019734252 -0.0059385896 -0.004903138
000250 3f 9b 23 3c 60 e9 a0 bc 90 3c 48 ba 2b fe 81 bb
       0.009985744 -0.019642532 -0.0007638419 -0.0039670668
000260 04 25 e1 39 62 4a dd 3a 48 60 58 bc 66 b3 c5 ba
       0.00042942923 0.001688313 -0.013206549 -0.0015083372
000270 0c f0 75 3a 22 92 2d bd a4 b9 04 3e e9 ba 91 3c
       0.0009381778 -0.04237569 0.12961441 0.017789321
000280 d7 db 1c be 24 d9 c0 3c cf 79 00 3a f7 f7 b0 3b
       -0.15318237 0.02354104 0.00049009634 0.0054006535
000290 46 5d 03 bb b5 39 66 bb d2 63 52 3b b3 fa 25 bb
       -0.002004461 -0.003512961 0.0032102955 -0.002532643
0002a0 00 75 73 bb 46 2b a2 39 89 78 94 bb 61 1b c6 3b
       -0.0037148595 0.0003093129 -0.0045309705 0.0060457443
0002b0 ac 65 ce bb 15 58 04 3b b6 b9 ad bb 29 c3 d6 3c
       -0.0062987413 0.0020194103 -0.0053016795 0.026216106
0002c0 8f 45 a4 bc ae bd d7 b8 9f 01 10 bb 7d de 26 39
       -0.0200527 -0.000102873295 -0.0021973622 0.00015913877
0002d0 5b 9c d3 bb 70 cc 60 bc d9 ec c7 3c f0 24 6a bd
       -0.006457848 -0.013720617 0.02440493 -0.057164133
0002e0 5a b8 9d bd de ba 9a 3c 77 fd 57 bc b6 d3 a1 bc
       -0.07701178 0.018887933 -0.013182989 -0.019754272
0002f0 12 2b b0 b9 52 40 54 bc 9a 0e 98 bd 08 3b a3 bc
       -0.00033601426 -0.012954788 -0.0742466 -0.01992561
000300 f2 ea 33 bd fa d1 c6 3e e9 fb e3 bd dd 74 b5 bc
       -0.043925233 0.38832074 -0.111320324 -0.022150451
000310 9a 3b 6a 3d 26 63 68 bc 00 db b8 3b 03 44 e5 ba
       0.057185747 -0.014183795 0.005641341 -0.0017491583
000320 4a cd 3d 3c 34 67 32 3b 66 91 90 bc cd ad 04 3c
       0.011584589 0.0027222158 -0.017647456 0.008098078
000330 3a 2f 1c bb 7f 4f fd 3b f8 54 85 bc 18 d1 7a bb
       -0.002383186 0.007730424 -0.016275868 -0.0038271602
000340 ca 2e ce 3b b8 82 e8 39 50 d1 80 bc 3e c3 86 3b
       0.006292199 0.0004434788 -0.015724808 0.00411263
000350 80 84 7f 3c d9 bd c9 3b 66 50 9b bb 77 07 f6 3b
       0.015595555 0.006156665 -0.004739809 0.007508214
000360 43 3b 80 3b 58 29 bb 3a 2b ec 73 bb 43 fa e1 bb
       0.0039133145 0.0014279289 -0.0037219625 -0.0068962886
000370 1b a0 83 3c bc c1 a7 bb 4b 18 1b bb c2 1b 85 3b
       0.016067555 -0.0051195305 -0.0023665603 0.004062147
000380 c3 dc ed bb f8 d1 05 bc ac 3a 30 3b e1 d8 09 bc
       -0.007258983 -0.008167736 0.002689044 -0.008413524
000390 d2 61 e9 bb 77 9a 07 3c 52 bd bb 3a b4 30 df ba
       -0.007122257 0.008276573 0.001432339 -0.0017028064
0003a0 13 76 c2 3b 57 8a 2c bc 44 92 04 3b ea 71 c9 bb
       0.0059344857 -0.01053103 0.0020228783 -0.006147613
0003b0 d7 bb bd 3b 46 05 e2 bb 4e 20 43 3a e7 ed 35 bc
       0.0057902145 -0.0068976013 0.00074434734 -0.011104084
0003c0 36 85 20 bc 08 1f 23 bc ca c1 69 bc 6e 72 1e bc
       -0.009797385 -0.009956129 -0.014267394 -0.009670837
0003d0 7b 26 07 bc 28 a3 0d 3b bc 62 2c 3c 5f 20 5f bc
       -0.008248921 0.0021612141 0.010521587 -0.013618558
0003e0 43 78 6a 3c a9 36 a1 3b 70 c1 fa bb 27 fa ae 3a
       0.014310899 0.004919846 -0.007652454 0.0013349698
0003f0 c0 81 63 3b 4a cd ec bb ed b5 a0 3a 36 6b 36 3c
       0.0034714788 -0.007226621 0.0012261249 0.0111339595
